project/dnn/models/cls_tiny_residual_hd768_L8_do0.2_l20.0001_bs512_amp1.pt (torch, 849821 bytes, 25 tensors)

net.0.weight f4 [256, 29]
0.10777343 0.11870697 -0.043469585 0.1765883 -0.0901299 0.10294182 -0.021424774 0.044138532
0.38839355 -0.09283199 0.09483774 0.056036185 0.18094124 0.019932864 0.15528244 0.008910578
0.058156796 0.05055659 -0.049086563 0.007932158 -0.2707106 -0.029730663 -0.0035683706 0.09784211
-0.33305472 -0.11159066 -0.14197999 0.016810443 0.06155458 -0.0991433 0.2755036 -0.1576074
0.16456679 0.033295937 -0.0517895 0.12061557 -0.0067764404 0.20933104 0.0072733457 -0.15468247
0.11860578 0.1153295 0.007953725 0.2287314 0.10317625 -0.2250375 0.05284056 0.06674045
0.20055375 -0.19341563 -0.17209196 -0.013933766 -0.25268334 0.24239819 0.099762015 0.103408255
-0.16910629 -0.018732473 0.17193039 -0.12912112 0.011683639 -0.064172104 0.049151734 0.026656074
0.045692943 -0.12672603 0.32652348 -0.1015705 -0.065697715 -0.12564778 0.099242195 0.09352165
0.20158109 -0.11074883 -0.15315667 -0.13405898 -0.12339977 0.030270495 0.027013127 0.26597652
-0.24451175 -0.17188033 -0.017720552 -0.053002566 -0.053837106 0.15140201 0.1782043 -0.25472245
-0.13443814 0.056555886 0.08903235 -0.04970347 0.19176759 0.18307275 -0.14026979 0.031638168
0.09248207 -0.13058028 -0.050933767 -0.36210215 -0.041745223 0.018869102 -0.012446417 -0.2158867
0.031116594 -0.04575831 -0.31106147 -0.19404677 -0.15393676 -0.10501781 0.18897957 -0.05870277
-0.05998369 -0.47055244 0.11493995 -0.03152126 0.0146790305 -0.14862806 -0.07994367 -0.13390914
0.041517377 -0.13569236 -0.07088842 -0.09554341 -0.3120902 -0.15650952 -0.041019328 -0.14770274
0.14707708 -0.034677725 0.120445244 0.10018689 -0.04856139 0.110226825 -0.0728708 -0.057748392
-0.18877284 -0.10530768 0.066413835 -0.12110965 0.12174376 -0.17031667 0.081775755 -0.14947057
0.047047112 0.059199307 0.12747896 0.14977887 0.22101852 -0.10499632 0.077638835 -0.12651439
0.00029762456 -0.26906785 0.14587475 -0.059495237 0.123243056 -0.048604425 0.05967653 -0.119822174
0.1691188 0.085693106 0.041226365 -0.21209438 0.08661001 -0.022969643 -0.0148811955 0.1194067
0.03776658 -0.07874885 -0.06219737 -0.15527995 0.13804227 0.028181093 -0.18756564 -0.05687027
-0.13859344 -0.03250016 0.13356905 -0.28332093 0.010353416 0.15772784 -0.06423701 -0.05919492
0.069071285 0.06389582 0.13267778 0.0071699787 -0.13683152 0.07538687 -0.16611552 -0.06517252
0.092490315 0.24370767 0.006182502 0.013738393 0.10547708 -0.10083041 -0.03522059 -0.041345257
-0.3825282 0.044317115 0.12569597 0.014565112 -0.022193732 -0.111840285 -0.18571088 -0.077807434
-0.23267624 0.078009084 0.16452357 0.032426607 -0.1351409 -0.10854418 0.0065551014 0.28042305
-0.039240662 -0.10325229 0.19305815 -0.034837767 -0.06633363 -0.008653458 0.012803852 -0.16788813
-0.16316703 0.22885214 -0.011791926 0.053249918 -0.21782166 -0.22557618 -0.1496908 0.21219996
0.0005464116 0.0989615 0.09716369 0.02547503 0.085249245 -0.27727136 -0.2168365 -0.07112682
-0.29228717 -0.09192877 -0.05097805 -0.05444056 -0.116730876 -0.13865638 -0.14593928 0.07282058
-0.08442626 0.11746972 -0.06313953 -0.10696553 -0.03275729 0.014480422 0.045958012 -0.20536833
00000000: 51b8 dc3d a41c f33d 2a0d 32bd 90d3 343e
00000010: 0696 b8bd 29d3 d23d 0283 afbc 9bca 343d
00000020: 85db c63e b31e bebd 4a3a c23d 3386 653d
00000030: a948 393e 3f4a a33c 5c02 1f3e acfd 113c
00000040: d235 6e3d 6d14 4f3d fe0e 49bd e2f5 013c
00000050: 949a 8abe b88d f3bc 53db 69bb 7261 c83d
00000060: 2686 aabe a589 e4bd 3463 11be 0eb6 893c
00000070: a820 7c3d a40b cbbd cf0e 8d3e d663 21be
00000080: 3284 283e 5261 083d 3a21 54bd 4c05 f73d
00000090: e70c debb e05a 563e 3f55 ee3b 1565 1ebe
000000a0: 96e7 f23d df31 ec3d 5750 023c 9038 6a3e
000000b0: 124e d33d 3b70 66be 586f 583d 38af 883d
000000c0: f65d 4d3e bf0e 46be e038 30be 734a 64bc
000000d0: b65f 81be 3b37 783e 0750 cc3d b5c7 d33d
000000e0: 332a 2dbe d874 99bc 850e 303e 5438 04be
000000f0: bc6c 3f3c aa6c 83bd 5453 493d d75d da3c
00000100: 8628 3b3d 78c4 01be 162e a73e 3204 d0bd
00000110: 868c 86bd d0a9 00be 7e3f cb3d 4788 bf3d
00000120: 466b 4e3e 48d0 e2bd 1ad5 1cbe c246 09be
00000130: 05b9 fcbd d4f9 f73c a24a dd3c 132e 883e
00000140: 4a61 7abe 6601 30be b12a 91bc 3819 59bd
00000150: 4c84 5cbd 2109 1b3e 307b 363e fb6a 82be
00000160: 27aa 09be 25a7 673d 9856 b63d de95 4bbd
00000170: b95e 443e 6c77 3b3e e2a2 0fbe 0697 013d
00000180: 3d67 bd3d d6b6 05be ed9f 50bd 7465 b9be
00000190: 0afd 2abd 6093 9a3c 0eec 4bbc 6711 5dbe
000001a0: 3ae8 fe3c 116d 3bbd 7343 9fbe 32b4 46be
000001b0: 99a1 1dbe 9413 d7bd dc83 413e 5172 70bd
000001c0: 75b1 75bd 40ec f0be a365 eb3d 701c 01bd
000001d0: 5180 703c f431 18be 82b9 a3bd 7a1f 09be
000001e0: 200e 2a3d f0f2 0abe f32d 91bd 43ac c3bd
000001f0: 49ca 9fbe 0844 20be e203 28bd 633f 17be
00000200: 609b 163e 3b0a 0ebd ffab f63d c92e cd3d
00000210: 4fe8 46bd 9abe e13d 493d 95bd 9489 6cbd
00000220: ab4d 41be 8eab d7bd fa03 883d 5608 f8bd
00000230: cb54 f93d 7e67 2ebe 0c7a a73d d00e 19be
00000240: 79b4 403d f97a 723d d889 023e a25f 193e
00000250: ae52 623e 5008 d7bd 1c01 9f3d fd8c 01be
00000260: 7e0a 9c39 43c3 89be 3160 153e 47b1 73bd
00000270: db66 fc3d 6f15 47bd 616f 743d 5465 f5bd
00000280: 7b2d 2d3e de7f af3d fadc 283d 452f 59be
00000290: 9760 b13d d52a bcbc 42d0 73bc 808b f43d
000002a0: 21b1 1a3d 1447 a1bd abc2 7ebd b501 1fbe
000002b0: f45a 0d3e 09dc e63c 3511 40be cdf0 68bd
000002c0: 70eb 0dbe e31e 05bd 53c6 083e 710f 91be
000002d0: 60a1 293c 6883 213e b28e 83bd 5f76 72bd
000002e0: 3f75 8d3d d0db 823d afdc 073e 24f2 ea3b
000002f0: 901d 0cbe 6e64 9a3d 301a 2abe 2c79 85bd
00000300: 906b bd3d 818e 793e 9696 ca3b ff16 613c
00000310: 5e04 d83d 2d80 cebd 7743 10bd a559 29bd
00000320: bcda c3be dd85 353d 72b6 003e 82a2 6e3c
00000330: a1cf b5bc 850c e5bd fe2a 3ebe 8159 9fbd
00000340: ae42 6ebe 3ac3 9f3d de78 283e c3d1 043d
00000350: 6062 0abe 694c debd 2dcc d63b 9c93 8f3e
00000360: d1ba 20bd f075 d3bd 09b1 453e 0cb2 0ebd
00000370: edd9 87bd 3cc7 0dbc 3fc7 513c deea 2bbe
00000380: 4215 27be 3758 6a3e ec32 41bc 961c 5a3d
00000390: a40c 5fbe 71fd 66be 8c48 19be f24a 593e
000003a0: 103d 0f3a 54ac ca3d c2fd c63d 03b1 d03c
000003b0: 2897 ae3d 83f6 8dbe 630a 5ebe f0aa 91bd
000003c0: aaa6 95be 2745 bcbd 5cce 50bd 11fd 5ebd
000003d0: 9910 efbd f0fb 0dbe 1b71 15be f522 953d
000003e0: ade7 acbd f793 f03d 4c4f 81bd be10 dbbd
000003f0: 822c 06bd 4b3f 6d3c 783e 3c3d 134c 52be

net.0.bias f4 [256]
0.016782865 0.20828958 -0.082741156 -0.018085836 0.045970332 -0.009258947 0.19392106 -0.14247012
0.031719454 0.035823036 -0.10121317 -0.06046431 0.035623875 0.02373731 0.1261786 0.011076317
0.19301674 0.06707992 0.10980586 -0.11849161 -0.037874736 -0.11785375 -0.009743154 -0.040645935
-0.09075695 0.23381512 -0.007255079 0.10751881 0.12545589 -0.060164243 0.06295817 -0.006864868
0.12795638 0.055377055 -0.029040582 0.17428005 -0.076559834 -0.00742904 0.13880546 0.1763026
0.07623568 0.17675693 -0.05782252 0.23537457 -0.12487185 -0.031476088 0.008074282 -0.15233353
0.113746524 0.10034699 -0.09487758 0.024144048 0.12271341 0.20926486 0.13159858 0.0362778
0.012765072 0.039341714 -0.060084213 -0.07777703 0.10923016 -0.22598368 -0.07370747 0.06161347
0.103258386 -0.06493844 -0.09654918 0.034654997 0.20495078 0.12866263 -0.09403415 0.017143615
-0.13690372 -0.08788086 -0.03937032 -0.23445365 -0.18128528 0.040365674 0.06484421 0.0661803
-0.09973029 0.014736795 0.09517238 0.05371382 -0.044438913 0.06038537 0.048741538 -0.008214976
-0.0086859325 0.11581581 -0.09683933 0.14821778 -0.10800735 0.23020817 0.11039448 -0.08822041
0.0722427 -0.08653025 -0.11917397 -0.08047531 -0.14520063 0.1402117 -0.05771659 0.059454583
-0.17075257 -0.15396538 0.20344467 -0.16791269 0.07427831 0.16048048 -0.03487833 0.11853455
-0.20250027 0.0016520991 0.14485726 0.35343343 0.18165293 0.18736008 -0.1574485 0.04745794
-0.1417312 0.00856615 -0.0004100523 0.042776592 -0.0079363035 0.06461697 -0.12356633 -0.23002554
-0.13194999 0.0010681995 -0.15487191 0.20101765 -0.14262195 -0.20568642 0.20371091 -0.1068344
-0.12766679 0.045489233 0.14323705 -0.07851834 0.14486112 -0.073360056 0.025632616 -0.27514926
-0.18061066 0.011381287 0.11082192 -0.078975484 -0.075477295 -0.005538769 0.034019563 0.028017106
0.034588426 -0.07561594 -0.26255444 0.19409162 0.1285947 0.16927068 -0.12302616 -0.022493454
-0.049553424 0.08693334 -0.17133923 0.03467402 -0.1683597 0.104649805 -0.026733192 -0.17180958
-0.011178538 -0.16636747 0.075903684 -0.049409576 -0.1560695 -0.14704736 0.035218958 -0.06633732
0.12405628 -0.00057464436 -0.01911198 -0.19200031 0.062304433 0.054816913 -0.018221073 -0.14461914
0.006366586 -0.11842138 -0.08875803 -0.18848597 -0.01818453 0.04742553 0.19671118 0.29694793
0.22053719 0.1932929 0.05949998 0.15023017 -0.18826382 -0.12212025 -0.12894267 0.14998451
0.1682292 -0.033283483 -0.20687442 -0.117641106 0.034174778 -0.049374383 0.15633142 -0.18833673
0.2101824 0.10380383 0.16482651 0.15324643 -0.1535427 0.0078066685 -0.17650847 -0.02148468
0.1297527 -0.085085265 0.0067314343 0.0726136 -0.004030263 -0.1359955 -0.089529075 0.059638925
-0.11352839 0.19866514 0.1758304 0.15907356 0.038573295 0.10934173 -0.07415953 0.06243047
-0.058661617 0.0788491 0.07437614 0.16459371 0.03671565 0.14827625 0.23660466 0.040031914
0.09271235 -0.18229726 0.014339225 -0.026134163 -0.0137553 0.02989011 0.12347306 -0.18773226
0.09038717 -0.07617847 0.004640202 0.20120808 -0.15536676 0.044896416 -0.16360752 0.18443458
00000000: 387c 893c dd49 553e 3274 a9bd bf28 94bc
00000010: 634b 3c3d d7b2 17bc 3e93 463e b0e3 11be
00000020: 42ec 013d 2dbb 123d da48 cfbd 6da9 77bd
00000030: 57ea 113d bf74 c23c f734 013e 7179 353c
00000040: 2ea6 453e 3261 893d e5e1 e03d bbab f2bd
00000050: 8a22 1bbd 4f5d f1bd c0a1 1fbc 5a7c 26bd
00000060: c8de b9bd 3b6d 6f3e 04bc edbb d232 dc3d
00000070: 8277 003e c86e 76bd 37f0 803d b0f2 e0bb
00000080: ff06 033e 0dd3 623d 84e6 edbc 7876 323e
00000090: 67cb 9cbd 4e6f f3bb 0523 0e3e ab88 343e
000000a0: 7421 9c3d c5ff 343e 4fd7 6cbd 0806 713e
000000b0: d0bc ffbd 12ed 00bd fe49 043c 52fd 1bbe
000000c0: f0f3 e83d b982 cd3d 2d4f c2bd bdc9 c53c
000000d0: 2b51 fb3d 8749 563e c7c1 063e 0898 143d
000000e0: 9824 513c c724 213d dd1a 76bd 9049 9fbd
000000f0: 10b4 df3d 4468 67be f1f3 96bd 685e 7c3d
00000100: 2279 d33d 72fe 84bd 94bb c5bd 66f2 0d3d
00000110: 9ede 513e 23c0 033e fa94 c0bd c470 8c3c
00000120: 7d30 0cbe e1fa b3bd c642 21bd 9e14 70be
00000130: d9a2 39be 7a56 253d 0bcd 843d 8a89 873d
00000140: 653f ccbd 9972 713c bde9 c23d 0603 5c3d
00000150: 9405 36bd a656 773d 35a5 473d 1b98 06bc
00000160: 714f 0ebc d730 ed3d b353 c6bd 67c6 173e
00000170: f532 ddbd b1bb 6b3e 8016 e23d e7ac b4bd
00000180: fbf3 933d c636 b1bd 7b11 f4bd 3dd0 a4bd
00000190: 79af 14be a893 0f3e 3b68 6cbd a686 733d
000001a0: c3d9 2ebe 1aa9 1dbe cd53 503e 4ef1 2bbe
000001b0: 3a1f 983d ff54 243e 94dc 0ebd 3ec2 f23d
000001c0: 3b5c 4fbe 3f8b d83a 7655 143e 3af5 b43e
000001d0: 3a03 3a3e 52db 3f3e 2e3a 21be 4263 423d
000001e0: fc21 11be 0a59 0c3c 4afc d6b9 8236 2f3d
000001f0: 4507 02bc e755 843d 5810 fdbd d18b 6bbe
00000200: e61d 07be d402 8c3a be96 1ebe 92d7 4d3e
00000210: 7d0b 12be 769f 52be 9899 503e fecb dabd
00000220: 15bb 02be eb52 3a3d bcac 123e 39ce a0bd
00000230: 7956 143e cc3d 96bd 7efb d13c 5de0 8cbe
00000240: 00f2 38be 9478 3a3c 9af6 e23d e6bd a1bd
00000250: d793 9abd 907e b5bb 1958 0b3d 2184 e53c
00000260: 98ac 0d3d 88dc 9abd 896d 86be f4bf 463e
00000270: 54ae 033e 4b55 2d3e 24f5 fbbd 3144 b8bc
00000280: 88f8 4abd 1b0a b23d 8d73 2fbe 5806 0e3d
00000290: 7c66 2cbe a352 d63d 91ff dabc daee 2fbe
000002a0: 3026 37bc 3c5c 2abe 6473 9b3d b261 4abd
000002b0: afd0 1fbe 9593 16be c141 103d dcdb 87bd
000002c0: 3811 fe3d bba3 16ba ba90 9cbc bb9b 44be
000002d0: ef32 7f3d b387 603d 5c44 95bc 0a17 14be
000002e0: cb9e d03b e986 f2bd c5c6 b5bd 7702 41be
000002f0: b9f7 94bc 4641 423d a86e 493e 8f09 983e
00000300: 80d4 613e 93ee 453e 40b6 733d f0d5 193e
00000310: 3bc8 40be 2e1a fabd 8c09 04be 8a95 193e
00000320: 4744 2c3e 4354 08bd e3d6 53be d2ed f0bd
00000330: dafa 0b3d cb3c 4abd 5815 203e 58db 40be
00000340: 0e3a 573e 1a97 d43d 48c8 283e a2ec 1c3e
00000350: 4c3a 1dbe 15cf ff3b a3be 34be a400 b0bc
00000360: e4dd 043e 2f41 aebd 5d93 dc3b 70b6 943d
00000370: 4c10 84bb 6842 0bbe 055b b7bd f247 743d
00000380: 9381 e8bd e06e 4b3e e20c 343e 2ee4 223e
00000390: 08ff 1d3d 8fee df3d f4e0 97bd 18b7 7f3d
000003a0: 2a47 70bd a37b a13d 8552 983d 418b 283e
000003b0: 2663 163d bbd5 173e 7e48 723e 81f8 233d
000003c0: f9df bd3d 22ac 3abe 12ef 6a3c 5017 d6bc
000003d0: e95d 61bc 1bdc f43c 72df fc3d e33c 40be
000003e0: e91c b93d 7503 9cbd d60c 983b 7e09 4e3e
000003f0: 7718 1fbe 4ee5 373d bb88 27be 6bdc 3c3e

net.1.weight f4 [256]
0.92270726 1.0734228 1.0790195 0.91791654 0.97807705 0.9878964 0.897923 0.86272234
1.0103341 1.0826555 1.0603255 1.0524484 0.99886334 1.0054458 0.98843753 0.90168095
1.0173113 1.0408107 0.8569272 0.9873068 0.9849058 1.0225911 0.86006135 1.0061587
0.7692125 0.98215824 0.9650705 0.99074304 0.960663 0.90315485 1.0772637 1.0204245
1.0019165 0.9928877 1.0244702 1.0323576 0.9217419 0.98419315 0.9711385 0.8442379
1.0699401 0.9584565 1.0374397 0.99521 0.85090107 1.0657475 1.041773 1.0867827
0.96531457 0.9281905 0.96451247 1.0145917 0.99930125 0.8896387 0.8374325 0.9815186
0.87414175 1.0078554 1.0865322 1.0601013 0.97921515 0.923842 1.1014344 0.9437483
1.0424753 1.0613687 1.0482299 0.99715257 0.98006314 0.8553719 0.8053462 0.89912665
1.0042886 1.0399766 1.0977956 1.0906564 0.99264616 0.95602244 0.99606055 1.0033437
0.9877186 0.81476265 0.92293614 0.9244594 1.0320164 0.98021185 0.8676374 0.9956472
1.0407265 1.1709217 1.0195706 1.0361259 0.85531276 0.91604096 0.9304347 1.0154741
0.9657825 0.96910655 1.0297507 0.9011588 0.87769914 1.0676434 0.92351675 1.0164831
1.0629278 0.9174512 0.96702707 1.0132449 0.955524 1.0345163 1.0552382 0.94148463
0.88860166 1.0051008 0.8965717 1.0455585 0.9308916 0.968593 1.064465 0.93688697
0.83671165 0.9910301 0.9515595 0.88716495 1.0286736 1.0002488 1.0202621 0.8761259
0.9874772 0.9404004 0.9971057 1.0649338 1.0799929 1.0931077 0.9710034 0.94678813
0.83933985 1.0276064 1.0274724 1.0010467 1.1609217 0.98440164 1.0068762 0.95637846
0.932493 0.85291934 1.0607929 0.9773125 1.0756847 0.9664808 0.88331306 0.98676443
1.0921011 1.0763218 0.9451324 0.9926936 0.93406534 0.9347111 0.99708074 0.92356086
0.8668695 0.87228376 0.9441818 1.0394156 0.99078476 1.0240428 0.99709654 0.90052164
0.99610513 0.90143675 0.95915765 0.9893862 1.0185559 1.1085634 0.9511062 0.9636742
0.9094246 1.088303 0.96109694 1.0585998 1.0530874 0.9583747 0.9994481 0.947028
0.89695626 0.9901402 0.8727849 1.0461453 1.0048205 0.91129667 1.0545181 0.9338498
0.9186644 1.0062903 0.932901 1.0288837 0.9742576 0.9571983 0.9606845 0.7473068
1.0588263 1.0430651 0.9056569 1.0480994 1.0431414 0.8626733 0.9638549 0.86059105
1.009046 1.051279 0.9205407 0.88694483 0.94026554 0.85731304 0.96720535 0.8268363
0.9970628 0.96607643 1.0717572 0.8565537 0.92554826 0.8322854 0.946933 0.94663143
0.9970438 0.83594894 0.94744235 1.0776756 1.0853804 1.0120595 1.0043956 0.90440214
1.0414929 0.9605345 0.9448009 1.1091378 0.99176216 0.92496634 1.0274514 1.0342963
0.9188158 0.977351 1.009808 1.0928257 1.0294839 1.0562314 1.0147221 0.9884002
1.0052303 1.0909237 1.0785867 1.0036615 1.027997 1.044909 0.88287604 0.86846286
00000000: 8b36 6c3f eb65 893f 501d 8a3f 94fc 6a3f
00000010: 4263 7a3f c7e6 7c3f 48de 653f 5fdb 5c3f
00000020: a152 813f 7594 8a3f bfb8 873f a1b6 863f
00000030: 82b5 7f3f 73b2 803f 3e0a 7d3f 90d4 663f
00000040: 4237 823f 4939 853f 955f 5b3f 23c0 7c3f
00000050: c922 7c3f 44e4 823f fb2c 5c3f cfc9 803f
00000060: 1ceb 443f b96e 7b3f dc0e 773f 56a1 7d3f
00000070: 03ee 753f 2835 673f c7e3 893f 459d 823f
00000080: cd3e 803f e32d 7e3f d721 833f 4b24 843f
00000090: 47f7 6b3f 15f4 7b3f 889c 783f fa1f 583f
000000a0: ccf3 883f 685d 753f d3ca 843f 15c6 7e3f
000000b0: a7d4 593f 6a6a 883f d158 853f b21b 8b3f
000000c0: db1e 773f e59d 6d3f 4aea 763f 24de 813f
000000d0: 35d2 7f3f 5dbf 633f fa61 563f ce44 7b3f
000000e0: c1c7 5f3f 6801 813f 7d13 8b3f 66b1 873f
000000f0: d8ad 7a3f e980 6c3f cdfb 8c3f 7d99 713f
00000100: d56f 853f eeda 873f 662c 863f 6445 7f3f
00000110: 6be5 7a3f a7f9 5a3f 2b2b 4e3f 2a2d 663f
00000120: 878c 803f f41d 853f 9184 8c3f a19a 8b3f
00000130: 0f1e 7e3f e3bd 743f d3fd 7e3f 916d 803f
00000140: 20db 7c3f 4994 503f 8b45 6c3f 5fa9 6c3f
00000150: 1d19 843f 2aef 7a3f 7c1d 5e3f bce2 7e3f
00000160: 8736 853f c3e0 953f 4a81 823f c69f 843f
00000170: c7f5 5a3f a981 6a3f f830 6e3f 0efb 813f
00000180: 863d 773f 5e17 783f dfce 833f 58b2 663f
00000190: e4b0 603f 8aa8 883f 986b 6c3f 1e1c 823f
000001a0: 050e 883f 15de 6a3f 168f 773f 02b2 813f
000001b0: 399d 743f 086b 843f 0c12 873f 2305 713f
000001c0: 667b 633f 25a7 803f b985 653f dcd4 853f
000001d0: e94e 6e3f b6f5 773f 6440 883f d3d7 6f3f
000001e0: bc32 563f 26b4 7d3f 6799 733f 3e1d 633f
000001f0: 94ab 833f 2708 803f f397 823f c949 603f
00000200: 4ecb 7c3f 15be 703f 5242 7f3f c04f 883f
00000210: 353d 8a3f f4ea 8b3f ae93 783f b560 723f
00000220: fade 563f 9b88 833f 3784 833f 4c22 803f
00000230: 1599 943f bf01 7c3f 52e1 803f 38d5 743f
00000240: dcb7 6e3f ec58 5a3f 10c8 873f 2731 7a3f
00000250: 09b0 893f 496b 773f ce20 623f 989c 7c3f
00000260: f8c9 8b3f eac4 893f 32f4 713f 2b21 7e3f
00000270: e81e 6f3f 3a49 6f3f af40 7f3f 7c6e 6c3f
00000280: 29eb 5d3f fd4d 5f3f e6b5 713f 920b 853f
00000290: 12a4 7d3f d613 833f b841 7f3f 9688 663f
000002a0: bf00 7f3f 8fc4 663f 5b8b 753f 6a48 7d3f
000002b0: 0a60 823f 68e5 8d3f b27b 733f 5ab3 763f
000002c0: 0dd0 683f 834d 8b3f 730a 763f 3380 873f
000002d0: 91cb 863f 0b58 753f d5db 7f3f 6d70 723f
000002e0: ed9e 653f d479 7d3f d56e 5f3f 17e8 853f
000002f0: f59d 803f bd4a 693f 73fa 863f c810 6f3f
00000300: 972d 6b3f 1fce 803f 9ad2 6e3f 76b2 833f
00000310: f268 793f f30a 753f 6bef 753f 804f 3f3f
00000320: 9f87 873f 2883 853f 21d9 673f 1f28 863f
00000330: a885 853f 28d8 5c3f 32bf 763f b24f 5c3f
00000340: 6b28 813f 4f90 863f 8ea8 6b3f d10e 633f
00000350: 3eb5 703f de78 5b3f c59a 773f 8bab 533f
00000360: 823f 7f3f c950 773f 572f 893f 1a47 5b3f
00000370: bbf0 6c3f a810 553f 336a 723f 7056 723f
00000380: 433e 7f3f c000 563f 958b 723f 46f1 893f
00000390: bfed 8a3f 2a8b 813f 0990 803f e686 673f
000003a0: a44f 853f 97e5 753f 79de 713f 3af8 8d3f
000003b0: 20e4 7d3f 98ca 6c3f 8783 833f d263 843f
000003c0: 8337 6b3f ad33 7a3f 6341 813f b6e1 8b3f
000003d0: 21c6 833f 9732 873f 6ae2 813f cc07 7d3f
000003e0: 63ab 803f 63a3 8b3f 210f 8a3f fb77 803f
000003f0: 6895 833f 94bf 853f 2a04 623f 9553 5e3f

net.1.bias f4 [256]
-0.039995696 -0.052365776 -0.07448919 0.022410292 -0.06550012 -0.25106308 -0.070627354 -0.206212
-0.026554313 0.034389433 0.0123575 0.01897995 -0.11722958 0.08557356 0.113767006 -0.19836417
0.027360896 0.03541265 -0.23298681 0.057643328 0.03092892 -0.0354535 -0.15180258 -0.047008526
-0.2999777 0.028167015 -0.054959267 -0.052117318 0.0069685816 -0.03845248 -0.13847362 0.0021342374
0.02618309 -0.070174634 0.0070208674 -0.037707828 0.002747226 -0.16926464 -0.1284895 -0.085581765
-0.19901703 -0.026351208 -0.16685532 0.004022064 -0.090392806 -0.05482629 -0.255211 0.038454983
-0.13708523 -0.21131493 -0.15407063 -0.15707609 -0.030896652 -0.16063485 -0.25456163 -0.08798471
-0.07743699 -0.025322158 -0.051867686 -0.10342699 -0.2025938 -0.033162825 0.08381694 0.031016534
0.02201042 0.069077 -0.072640516 -0.06569361 0.024580494 -0.12899259 -0.15852228 -0.11719417
0.042126846 0.060499374 0.0163865 0.029202182 -0.24635138 -0.026379678 -0.036430635 -0.1146676
-0.019517295 -0.25003585 -0.08474768 0.033478267 0.105951555 0.03479206 -0.21989177 0.004629434
-0.05221862 0.012023493 -0.11152857 -0.022195054 -0.110984966 -0.15405796 -0.018945461 -0.05333212
-0.15609 -0.12236812 -0.042473808 -0.040641733 -0.14810273 0.15380058 -0.19025336 0.073317245
-0.05789571 -0.076385416 -0.13647714 0.01651144 0.028739225 0.023592953 0.009174524 0.041577164
-0.15257685 0.121420845 -0.04519324 -0.0033871226 0.011281733 -0.043377355 -0.106447294 -0.044124242
-0.21398729 -0.03214185 -0.2465471 -0.05704009 -0.020781178 0.019919714 -0.083703704 -0.16343808
0.068481505 -0.15073574 -0.08613998 -0.12348295 -0.14370751 0.02366951 -0.112539254 0.017477581
-0.27996963 -0.028725984 -0.09478808 -0.038201682 -0.14950936 -0.15707894 0.03687284 -0.052915584
-0.1274315 -0.22530743 0.10767789 -0.08724932 -0.11354849 -0.10951525 -0.03361907 -0.057989683
0.0198475 -0.022926567 -0.046389904 0.03663069 -0.034535095 -0.14286894 0.004767458 -0.026455007
-0.11224047 -0.13951239 -0.17445968 0.032731146 -0.12344202 -0.032644093 0.032382146 -0.05929043
0.05046373 -0.20292537 -0.09955046 -0.011543614 -0.106978245 -0.18269463 -0.061833337 -0.23363805
0.029798541 -0.24813357 0.022444582 -0.028347794 0.1611383 0.009527387 0.1496614 -0.07990408
-0.17498899 -0.064411215 -0.06552426 -0.03428126 -0.033012796 -0.111271046 -0.06829345 -0.04003114
-0.22775798 0.06326597 -0.12804663 -0.028723286 -0.08859316 0.021183483 -0.0063304887 -0.20044364
-0.044828277 0.0004938692 -0.07566835 0.041462436 -0.13234156 -0.09100272 -0.18665856 -0.043036003
-0.022644134 -0.09115959 0.046392277 -0.08715908 -0.047345463 -0.11679066 0.059764925 -0.15094638
-0.09999338 -0.13731675 -0.0795352 -0.064692855 -0.11237066 -0.23521163 -0.010971595 -0.23015077
-0.17615142 -0.23521699 -0.04020778 0.06722948 -0.11920149 -0.034091372 -0.041300066 -0.11093978
-0.042560723 -0.13355674 -0.015152888 0.052075047 0.05054378 -0.11606034 -0.036760144 -0.21939676
-0.094988324 -0.07268445 -0.032215465 -0.02861083 -0.04943421 0.062077846 -0.012930716 -0.06412132
-0.11981927 -0.010758544 -0.15754677 0.007927704 0.025408255 -0.0255242 -0.0674295 0.0108731445
00000000: 87d2 23bd 7f7d 56bd ca8d 98bd ca95 b73c
00000010: ed24 86bd 578b 80be 13a5 90bd 3d29 53be
00000020: 6e88 d9bc efdb 0c3d 1d77 4a3c d77b 9b3c
00000030: 1016 f0bd 3141 af3d adfe e83d fa1f 4bbe
00000040: f523 e03c db0c 113d 1894 6ebe 691b 6c3d
00000050: a55e fd3c b037 11bd 2372 1bbe 038c 40bd
00000060: ad96 99be 83be e63c f81c 61bd f878 55bd
00000070: b358 e43b 5980 1dbd 07cc 0dbe 90de 0b3b
00000080: eb7d d63c b8b7 8fbd 4e0f e63b 8673 1abd
00000090: ce0a 343b b653 2dbe c092 03be 7e45 afbd
000000a0: 1fcb 4bbe 7dde d7bc 1fdc 2abe 85cb 833b
000000b0: dd1f b9bd 8891 60bd 04ab 82be f982 1d3d
000000c0: 1260 0cbe f162 58be b1c4 1dbe 8ed8 20be
000000d0: fa1a fdbc 767d 24be e755 82be 5431 b4bd
000000e0: 4997 9ebd 6a70 cfbc 3673 54bd 88d1 d3bd
000000f0: c074 4fbe bed5 07bd 37a8 ab3d 6316 fe3c
00000100: 324f b43c 3e78 8d3d 8dc4 94bd 5f8a 86bd
00000110: 085d c93c a216 04be aa53 22be 7f03 f0bd
00000120: 338d 2c3d 31ce 773d fb3c 863c 6a39 ef3c
00000130: 8943 7cbe 321a d8bc 4a38 15bd d9d6 eabd
00000140: bce2 9fbc b304 80be 3190 adbd 8220 093d
00000150: 21fd d83d 1e82 0e3d 4f2b 61be 82b2 973b
00000160: 31e3 55bd 2ffe 443c 1769 e4bd 67d2 b5bc
00000170: 164c e3bd 5fc1 1dbe 8333 9bbc c872 5abd
00000180: 0fd6 1fbe 239c fabd 04f9 2dbd f277 26bd
00000190: 3ea8 17be e67d 1d3e c7d1 42be 5a27 963d
000001a0: 0d24 6dbd f56f 9cbd aac0 0bbe 0043 873c
000001b0: 866e eb3c 0246 c13c be50 163c d14c 2a3d
000001c0: 1b3d 1cbe 7eab f83d 8c1c 39bd 7dfa 5dbb
000001d0: 05d7 383c 74ac 31bd 0a01 dabd 9fbb 34bd
000001e0: 7c1f 5bbe 2ca7 03bd d876 7cbe dfa2 69bd
000001f0: 4a3d aabc ab2e a33c d96c abbd 505c 27be
00000200: 0840 8c3d 785a 1abe 286a b0bd a1e4 fcbd
00000210: 1028 13be 8fe6 c13c fb7a e6bd 252d 8f3c
00000220: 2e58 8fbe c152 ebbc 4120 c2bd 5e79 1cbd
00000230: fb18 19be 4dd9 20be fa07 173d 03be 58bd
00000240: 677d 02be feb6 66be 3a86 dc3d c5af b2bd
00000250: 1c8c e8bd 8849 e0bd 26b4 09bd 9786 6dbd
00000260: 3997 a23c 7fd0 bbbc 5703 3ebd 100a 163d
00000270: ac74 0dbd 3c4c 12be 5638 9c3b 2cb8 d8bc
00000280: 55de e5bd 56dc 0ebe 8fa5 32be 1811 063d
00000290: 2bcf fcbd d0b5 05bd 24a3 043d 86da 72bd
000002a0: 0eb3 4e3d abcb 4fbe 1de1 cbbd 6d21 3dbc
000002b0: 6917 dbbd 4d14 3bbe f444 7dbd d03e 6fbe
000002c0: 121c f43c ba16 7ebe b3dd b73c a239 e8bc
000002d0: 7001 253e c218 1c3c d740 193e c0a4 a3bd
000002e0: 5030 33be 07ea 83bd 9531 86bd 826a 0cbd
000002f0: 6d38 07bd 13e2 e3bd 70dd 8bbd b1f7 23bd
00000300: 6339 69be 9791 813d a81e 03be 194d ebbc
00000310: 5570 b5bd fc88 ad3c fd6f cfbb 1941 4dbe
00000320: db9d 37bd 0077 013a 02f8 9abd 84d4 293d
00000330: 8c84 07be a25f babd 6c23 3fbe 8546 30bd
00000340: 3180 b9bc e1b1 babd d405 3e3d 7680 b2bd
00000350: 51ed 41bd f12f efbd 11cc 743d b091 1abe
00000360: 54c9 ccbd c39c 0cbe 5ae3 a2bd b07d 84bd
00000370: 9722 e6bd 51db 70be 34c2 33bc a5ac 6bbe
00000380: 0a61 34be b9dc 70be eab0 24bd 9caf 893d
00000390: e91f f4bd 65a3 0bbd 422a 29bd 6534 e3bd
000003a0: 2754 2ebd 19c3 08be d243 78bc a54c 553d
000003b0: ff06 4f3d 0bb1 edbd ce91 16bd 8ba9 60be
000003c0: 3d89 c2bd 96db 94bd 5df4 03bd 4261 eabc
000003d0: 877b 4abd 5745 7e3d 5bdb 53bc 0a52 83bd
000003e0: ce63 f5bd 9b44 30bc f153 21be 33e3 013c
000003f0: f924 d03c 2118 d1bc 7a18 8abd 4625 323c

net.1.running_mean f4 [256]
0.0957073 0.26835573 -0.10962386 -0.14334239 -0.046669792 0.034505114 0.32413173 -0.055738352
0.02675621 0.05340012 -0.12645204 -0.12054809 0.1578616 -0.067715034 0.10866671 -0.03815159
0.11478776 0.12045242 0.18177971 -0.33412534 0.10255134 -0.17057283 0.057000447 0.07179838
-0.06131944 0.39220202 0.00022430411 0.14044122 0.14192194 -0.07390909 0.06317159 0.12749901
-0.045349684 0.17588563 -0.1039336 0.24173185 -0.017557453 0.20745832 0.13508911 0.2760655
0.21738702 0.25776887 -0.15831709 0.4881974 -0.2263416 -0.09024809 -0.09061932 -0.053842474
0.14852603 -0.03303853 0.011378885 -0.036372866 0.19100244 0.1305532 0.27964148 -0.00033568038
-0.07359119 -0.0083093755 0.015418403 -0.060662527 0.31390566 -0.3493213 -0.046227973 0.24372481
0.23290856 -0.10361681 -0.12483207 -0.12154785 0.17989062 0.09135906 -0.16213302 -0.12609021
-0.039539788 0.14161809 0.1489063 -0.3934566 -0.2515336 -0.074507006 -0.062695295 0.025577452
-0.11879964 0.18370377 0.108518355 0.2033693 0.07179028 0.18301295 -0.09952292 0.093305506
0.13300236 0.30626535 -0.13156155 0.09270794 -0.08036585 0.33215412 0.30474523 -0.38310644
0.07338257 -0.09619922 -0.035901383 -0.20980883 0.065080285 0.051099036 -0.029676735 -0.1359213
-0.24732639 -0.12975036 0.15246236 -0.17455107 -0.044432446 0.23859863 0.18290979 0.18306544
-0.3269403 0.07427176 -0.047361203 0.4053546 0.29521742 0.39556488 -0.0693603 0.101358004
-0.27701217 -0.043629106 -0.065535694 0.09858549 0.15931828 0.14227043 -0.12343935 -0.16110094
0.065542825 -0.088599876 -0.20070568 0.25867856 -0.15549833 -0.4032764 0.08519023 -0.21677397
-0.073933184 0.115653805 0.04480403 0.004390411 0.0065699844 -0.1418286 -0.031118782 -0.04605802
-0.25195014 0.1752307 -0.032690123 -0.03292235 0.0640151 0.010648502 -0.14748229 0.30597368
-0.016272593 -0.27856204 -0.27646574 -0.0443725 0.19005549 0.39301938 -0.11579423 0.05872985
-0.21819551 0.03507067 -0.11483472 0.0035620595 -0.19366364 0.061360374 0.093106195 -0.03157592
-0.18735754 -0.20555349 0.239266 -0.13693637 -0.11911921 -0.13632475 0.13450442 0.07426978
0.13762805 0.011959125 -0.036203146 -0.10997974 0.07931704 -0.066509694 0.07796956 -0.1842298
0.059304453 -0.24053173 -0.051145393 -0.30479527 -0.09036602 -0.036298092 0.21760413 0.42423654
0.1533156 0.12646031 0.09601556 0.3217791 -0.010949636 -0.119293466 -0.018284604 0.050981764
0.13373715 -0.15557817 0.110532396 -0.033596847 0.036609035 -0.026511326 0.090814136 -0.37632775
0.40362826 0.16891016 0.12381307 0.16342555 -0.1617001 -0.1240104 -0.21232319 -0.1187497
0.19804902 -0.05059188 0.26992467 0.12923673 -0.110902235 -0.19082078 0.06632443 0.32015908
-0.03334095 0.11300648 0.39124337 0.25036 0.076931074 0.10631251 -0.06851683 0.029916843
-0.034946214 0.06528783 0.13687627 0.24049279 0.14553776 0.10166868 0.46808845 -0.03784319
-0.007453077 -0.21030386 -0.027172307 -0.05321477 -0.035682492 -0.18337147 0.2310859 -0.35576084
0.15906607 0.0879536 -0.045720264 0.34574777 -0.091918536 0.16843277 -0.037986755 0.06728431
00000000: 3002 c43d ec65 893e 7982 e0bd 59c8 12be
00000010: d328 3fbd 3c55 0d3d 98f4 a53e e64d 64bd
00000020: d72f db3c 16ba 5a3d a57c 01be ebe1 f6bd
00000030: 79a6 213e 2eae 8abd a78c de3d d744 1cbd
00000040: d815 eb3d c2af f63d 7624 3a3e 7a12 abbe
00000050: 7006 d23d a5aa 2ebe 4d79 693d 070b 933d
00000060: 182a 7bbd b4ce c83e 2d33 6b39 d3cf 0f3e
00000070: fc53 113e a65d 97bd 1b60 813d 1a8f 023e
00000080: 97c0 39bd 5d1b 343e 24db d4bd 8e88 773e
00000090: a6d4 8fbc f46f 543e cd54 0a3e 7558 8d3e
000000a0: b49a 5e3e 48fa 833e e01d 22be 02f5 f93e
000000b0: 18c6 67be fed3 b8bd 9f96 b9bd ed89 5cbd
000000c0: 3517 183e 6953 07bd 816e 3a3c b7fb 14bd
000000d0: 2596 433e bdaf 053e 2b2d 8f3e 42fe afb9
000000e0: fab6 96bd 0c24 08bc 789d 7c3c 4579 78bd
000000f0: 3eb8 a03e 3eda b2be 8b59 3dbd ff92 793e
00000100: 957f 6e3e 0d35 d4bd f5a7 ffbd 14ee f8bd
00000110: 3f35 383e 751a bb3d 3306 26be cb1d 01be
00000120: 79f4 21bd 5504 113e e57a 183e 2573 c9be
00000130: 03c9 80be 2197 98bd 6466 80bd ce87 d13c
00000140: 3a4d f3bd d71c 3c3e df3e de3d 0b40 503e
00000150: c806 933d bf67 3b3e acd2 cbbd f516 bf3d
00000160: c531 083e d0ce 9c3e 12b8 06be a9dd bd3d
00000170: da96 a4bd 1b10 aa3e 9107 9c3e 8726 c4be
00000180: 9a49 963d 1904 c5bd 540d 13bd 20d8 56be
00000190: d048 853d 394d 513d a01c f3bc f42e 0bbe
000001a0: 2143 7dbe 47dd 04be 181f 1c3e 84bd 32be
000001b0: ccfe 35bd 3353 743e b44c 3b3e 8275 3b3e
000001c0: b864 a7be cb1b 983d d2fd 41bd a38a cf3e
000001d0: bd26 973e 7b87 ca3e c60c 8ebd c994 cf3d
000001e0: 8ad4 8dbe 6fb4 32bd 9437 86bd 30e7 c93d
000001f0: 5524 233e 57af 113e c5cd fcbd a5f7 24be
00000200: 513b 863d da73 b5bd ca85 4dbe 8471 843e
00000210: f43a 1fbe 3f7a cebe 3778 ae3d fff9 5dbe
00000220: 486a 97bd e7db ec3d 6e84 373d 70dd 8f3b
00000230: 0649 d73b 843b 11be d1ec febc 56a7 3cbd
00000240: 9cff 80be ad6f 333e 14e6 05bd 96d9 06bd
00000250: 591a 833d 0e77 2e3c 9905 17be 95a8 9c3e
00000260: 1a4e 85bc af9f 8ebe eb8c 8dbe f0bf 35bd
00000270: e89d 423e d639 c93e 8625 edbd b68e 703d
00000280: a56e 5fbe 43a6 0f3d 772e ebbd 7171 693b
00000290: c34f 46be 0455 7b3d 76ae be3d c055 01bd
000002a0: a8da 3fbe 9d7c 52be 2502 753e 0c39 0cbe
000002b0: c6f4 f3bd b798 0bbe 87bb 093e c11a 983d
000002c0: 5eee 0c3e 35f0 433c c049 14bd 0f3d e1bd
000002d0: f970 a23d 3c36 88bd 81ae 9f3d bda6 3cbe
000002e0: 3ae9 723d f34d 76be d57d 51bd 200e 9cbe
000002f0: d211 b9bd 4fad 14bd 9ed3 5e3e 8835 d93e
00000300: c4fe 1c3e d07e 013e cea3 c43d 3bc0 a43e
00000310: 1a66 33bc 2250 f4bd 98c9 95bc 41d2 503d
00000320: 64f2 083e e24f 1fbe cf5e e23d d99c 09bd
00000330: 5bf3 153d 482e d9bc c3fc b93d 08ae c0be
00000340: 5da8 ce3e c9f6 2c3e b591 fd3d 0759 273e
00000350: b694 25be 2af9 fdbd 406b 59be 0b33 f3bd
00000360: 5dcd 4a3e 6e39 4fbd 9133 8a3e a256 043e
00000370: b620 e3bd 8666 43be 1ad5 873d e4eb a33e
00000380: 8590 08bd f16f e73d 0d51 c83e 302f 803e
00000390: 0a8e 9d3d 60ba d93d 8d52 8cbd 2b14 f53c
000003a0: c323 0fbd a0b5 853d 4b29 0c3e be43 763e
000003b0: da07 153e ab37 d03d 4aa9 ef3e 7601 1bbd
000003c0: f138 f4bb e559 57be 7598 debc bbf7 59bd
000003d0: ce27 12bd bbc5 3bbe c8a1 6c3e 4926 b6be
000003e0: 37e2 223e 0421 b43d 2c45 3bbd da05 b13e
000003f0: c93f bcbd a479 2c3e 0098 1bbd 5bcc 893d

net.1.running_var f4 [256]
0.37679297 0.18645872 0.17613357 0.42278582 0.29137728 0.13491195 0.4448455 0.14882813
0.39600912 0.3548563 0.51451063 0.31671727 0.18344623 0.41871932 0.41402683 0.29043046
0.2489537 0.17855382 0.16154021 0.37853387 0.28253675 0.2486447 0.24650863 0.35111874
0.22143732 0.52946186 0.3607032 0.27299422 0.17186835 0.39391738 0.089757316 0.2977003
0.3821263 0.18325597 0.28656065 0.38855994 0.26657867 0.24048518 0.12528014 0.25967133
0.116691194 0.13158159 0.14443175 0.28072158 0.15707132 0.24242678 0.06933876 0.47702608
0.15662791 0.11018867 0.19032894 0.112916805 0.36231607 0.32038042 0.062216114 0.38153088
0.21871446 0.29871148 0.16020103 0.10373172 0.24823914 0.13159393 0.17936407 0.36065686
0.6476271 0.41480905 0.36525086 0.18703806 0.3891361 0.13109764 0.13180003 0.21213408
0.28272843 0.3529112 0.11322666 0.44320437 0.062659256 0.25195795 0.3939216 0.17235713
0.14494005 0.61107683 0.28982964 0.3329574 0.22005755 0.33429798 0.12004417 0.24412818
0.26311418 0.20891824 0.05910071 0.35864738 0.16248381 0.09690445 0.17686218 0.49942896
0.119693436 0.2301188 0.33163732 0.12410159 0.27334136 0.48250908 0.17377073 0.123246066
0.08455722 0.17743286 0.09646126 0.2883694 0.2847014 0.59820145 0.54421353 0.37584603
0.28205436 0.25041762 0.29440716 0.28818646 0.27543294 0.18022864 0.106312245 0.089619026
0.10201364 0.26875055 0.14691046 0.47250727 0.39140904 0.3623505 0.28530207 0.24269272
0.19439445 0.11729874 0.3526631 0.16618101 0.08969989 0.037042774 0.07158185 0.20275573
0.13384946 0.663279 0.044741742 0.19896714 0.11477157 0.15142429 0.20763054 0.23057029
0.26580888 0.22274463 0.39922336 0.30187777 0.12583667 0.11981799 0.12760837 0.19022481
0.23544335 0.37772053 0.29024 0.5574923 0.52054864 0.13691147 0.2859947 0.3460745
0.12052136 0.36957052 0.17507522 0.31797725 0.12716104 0.3865193 0.4901113 0.3438521
0.31889552 0.21847117 0.22500941 0.3358473 0.28063536 0.1939623 0.2307008 0.085771486
0.14254418 0.1196349 0.49759635 0.4077292 0.45139793 0.48249888 0.252 0.133583
0.10509465 0.3686322 0.23351891 0.14590214 0.43525544 0.12692836 0.07114835 0.35853678
0.38504368 0.33691046 0.10063987 0.3208763 0.31380716 0.25612462 0.3897007 0.18634461
0.13224283 0.2542488 0.3697759 0.45989215 0.111216985 0.4390324 0.37296325 0.4691855
0.4086339 0.16946504 0.28367537 0.222286 0.3598319 0.13032842 0.1329354 0.13944645
0.20344819 0.1174529 0.07721956 0.24010123 0.1789831 0.17519093 0.27898479 0.49077737
0.13390616 0.18592654 0.17213088 0.422806 0.075886816 0.2681121 0.10710358 0.19873086
0.31937614 0.23258148 0.31315163 0.43587646 0.51023793 0.19610398 0.25985926 0.28641203
0.1736727 0.5256087 0.100927815 0.25084126 0.20583792 0.43433958 0.52571934 0.24310707
0.0999922 0.15552281 0.050237283 0.4244027 0.28215703 0.5771082 0.30468822 0.2796762
00000000: 02eb c03e 09ef 3e3e 5c5c 343e 6277 d83e
00000010: 672f 953e 5c26 0a3e cac2 e33e 6766 183e
00000020: b5c1 ca3e baaf b53e f8b6 033f c428 a23e
00000030: 54d9 3b3e 6162 d63e 53fb d33e 4db3 943e
00000040: b8ed 7e3e d0d6 363e cc6a 253e 31cf c13e
00000050: a8a8 903e b79c 7e3e c26c 7c3e d6c5 b33e
00000060: 77c0 623e d08a 073f 17ae b83e e6c5 8b3e
00000070: 42fe 2f3e 8aaf c93e afd2 b73d 2c6c 983e
00000080: 0fa6 c33e 74a7 3b3e 14b8 923e 54f1 c63e
00000090: 007d 883e bf41 763e 7049 003e a4f3 843e
000000a0: cbfb ee3d 53bd 063e ebe5 133e bdba 8f3e
000000b0: 4ed7 203e ba3e 783e 7b01 8e3d c33c f43e
000000c0: 1163 203e 99aa e13d 97e5 423e ed40 e73d
000000d0: 7e81 b93e e708 a43e 53d6 7e3d 0458 c33e
000000e0: aff6 5f3e b6f0 983e bd0b 243e 4c71 d43d
000000f0: 6732 7e3e 8fc0 063e 37ab 373e 04a8 b83e
00000100: e4ca 253f da61 d43e 2902 bb3e e886 3f3e
00000110: d93c c73e 763e 063e 96f6 063e ad39 593e
00000120: c8c1 903e c7b0 b43e 61e3 e73d afeb e23e
00000130: 7f53 803d a200 813e 18b0 c93e 637e 303e
00000140: 2a6b 143e 886f 1c3f 8d64 943e 6479 aa3e
00000150: c456 613e 1b29 ab3e b8d9 f53d bdfc 793e
00000160: e7b6 863e aaee 553e 9613 723d a1a0 b73e
00000170: 2862 263e d775 c63d 5c1b 353e 27b5 ff3e
00000180: d521 f53d 43a4 6b3e 5ecc a93e f928 fe3d
00000190: 66f3 8b3e 6e0b f73e f4f0 313e 6f68 fc3d
000001a0: 562c ad3d f6b0 353e 7b8d c53d 27a5 933e
000001b0: 62c4 913e bb23 193f 9451 0b3f e46e c03e
000001c0: 6e69 903e bd36 803e 89bc 963e 2d8d 933e
000001d0: 8c05 8d3e db8d 383e 3cba d93d 2e8a b73d
000001e0: 87ec d03d ac99 893e b26f 163e 79ec f13e
000001f0: c466 c83e 0186 b93e 1d13 923e 7184 783e
00000200: 570f 473e 523a f03d 4290 b43e 5b2b 2a3e
00000210: 93b4 b73d 2aba 173d 8199 923d 339f 4f3e
00000220: d50f 093e a7cc 293f 1e43 373d 0bbe 4b3e
00000230: 5b0d eb3d f80e 1b3e 1a9d 543e 9e1a 6c3e
00000240: 1a18 883e 2b17 643e 0167 cc3e b98f 9a3e
00000250: 54db 003e 2263 f53d c5ab 023e 4bca 423e
00000260: 1018 713e 9664 c13e 569a 943e d1b7 0e3f
00000270: ad42 053f 8532 0c3e e66d 923e ad30 b13e
00000280: e7d3 f63d 5938 bd3e eb46 333e eacd a23e
00000290: 8136 023e dce5 c53e deef fa3e 620d b03e
000002a0: 4646 a33e e8b6 5f3e de68 663e 2df4 ab3e
000002b0: 70af 8f3e 0e9e 463e d53c 6c3e f6a8 af3d
000002c0: 1af7 113e 2403 f53d f3c4 fe3e e2c1 d03e
000002d0: a11d e73e 180a f73e 2506 813e fbc9 083e
000002e0: dd3b d73d 5cbd bc3e 951f 6f3e 5f67 153e
000002f0: cdd9 de3e 82f9 013e 3ab6 913d 2292 b73e
00000300: 7224 c53e 877f ac3e 471c ce3d e649 a43e
00000310: 55ab a03e c422 833e da86 c73e 1fd1 3e3e
00000320: aa6a 073e e62c 823e 4453 bd3e fc76 eb3e
00000330: bbc5 e33d dbc8 e03e 0af5 be3e 1539 f03e
00000340: 7638 d13e 3e88 2d3e e63d 913e f19e 633e
00000350: e33b b83e d074 053e 3820 083e 0dcb 0e3e
00000360: b954 503e 258b f03d 4a25 9e3d 19dd 753e
00000370: 5947 373e 4065 333e 18d7 8e3e 2c47 fb3e
00000380: b21e 093e 8763 3e3e 1443 303e 077a d83e
00000390: 8c6a 9b3d fd45 893e 1f59 db3d 1a80 4b3e
000003a0: 4585 a33e d729 6e3e 6955 a03e 332b df3e
000003b0: f49e 023f 7bcf 483e 460c 853e 99a4 923e
000003c0: 42d7 313e 4b8e 063f 3eb3 ce3d 446e 803e
000003d0: 2dc7 523e c261 de3e 8b95 063f 0ff1 783e
000003e0: b6c8 cc3d 5f41 1f3e 9cc5 4d3d 504b d93e
000003f0: e376 903e 5dbd 133f 1800 9c3e b831 8f3e

net.4.weight f4 [256, 256]
-0.124833696 -0.11316512 -0.037183966 0.09291248 0.008651847 0.03523958 -0.00070587394 0.06037235
-0.10194295 -0.17495996 -0.0910243 -0.018789414 0.060200606 -0.07839801 0.087190874 0.024600495
0.065153114 -0.09368958 -0.03846854 0.018872993 0.13964857 -0.08845715 0.009408808 -0.020833798
0.03359609 -0.12151979 -0.027706323 -0.014369854 -0.063123025 -0.014858781 -0.126406 0.008485862
0.035294004 -0.063512936 0.03691798 -0.04466617 -0.038011685 0.040916473 -0.18589303 0.020119576
0.019014485 0.028582392 -0.056976873 -0.02057394 -0.033246752 -0.098615475 -0.09158207 -0.047281757
-0.05423722 0.014107866 0.101093 -0.074277006 0.016419502 -0.052369565 -0.1323017 -0.0055467924
0.0059740148 -0.055111885 0.042213205 -0.0017125461 -0.027303742 0.055115286 0.009728547 0.013316184
-0.07505143 -0.03356731 -0.00732137 -0.059679113 0.042225584 -0.060820322 -0.093146175 -0.04762527
-0.10833415 -0.000702101 0.062233377 -0.027295355 -0.07530106 -0.007494601 -0.058074605 0.01919464
0.03213116 0.08328149 -0.024808316 -0.017331254 -0.060610384 -0.07309042 -0.075446814 -0.059997253
0.04229125 -0.03336416 -0.076051965 0.006225 -0.015791627 -0.053689715 0.04912493 -0.13320874
-0.08271578 -0.1186769 -0.07631381 -0.05666181 -0.0144366985 -0.06848447 -0.095652126 -0.09337732
-0.04368495 0.031084444 0.014322644 -0.0029109728 -0.0041902917 1.6356182e-05 -0.05003257 -0.038508892
-0.022075081 -0.015297417 -0.030260269 -0.10976253 -0.029850986 -0.07275088 -0.06682025 0.022989871
-0.074043676 -0.006739413 -0.12779424 -0.051150296 -0.12831394 -0.06215561 -0.024701217 -0.07533857
-0.05469928 -0.0063898778 0.014424781 -0.042538274 -0.09355181 -0.07038774 0.07866942 -0.061996315
0.021321587 0.009438608 -0.06227572 -0.072728045 -0.14011091 0.01365527 0.02118972 -0.009296765
-0.00010697405 -0.007255047 -0.08858725 -0.047536235 -0.0013729563 -0.23653372 -0.08227872 0.03639311
-0.047207605 0.014533605 -0.079514906 -0.03032945 0.020364324 -0.046936065 -0.07071837 0.06994987
-0.10026348 0.04581905 -0.05679115 -0.034329947 0.066959254 -0.031529207 -0.07389013 -0.049820784
-0.017162358 0.040141378 0.05930032 -0.06433805 0.020466814 0.09013181 -0.023482813 -0.06675329
-0.14300117 -0.12278063 0.0037406476 0.061636485 -0.06418352 0.0050378325 -0.038724408 0.02927065
-0.022712244 -0.063067086 -0.0690847 0.0051595136 -0.051414154 -0.14039013 0.04722912 0.009502361
0.048737466 -0.021775952 -0.14686297 -0.028665127 -0.037659697 -0.020691138 -0.060922716 -0.04069784
0.017785953 -0.08431597 0.008395692 -0.06451848 -0.07240522 0.059292745 0.036720518 -0.026445495
0.01225024 -0.08779963 0.0059131016 0.010686412 -0.033672944 -0.011977511 -0.027837096 0.03820723
-0.013874454 -0.053813238 0.047485217 0.036606777 -0.053557932 -0.036416978 0.018066566 0.031955488
0.026758824 -0.00379392 0.03546128 0.017180255 -0.13785656 0.060645457 0.039260846 -0.029506713
-0.09775163 -0.07683578 -0.05886297 -0.08698028 0.073714495 0.014912025 -0.12663111 -0.04720742
0.041590665 -0.041159783 -0.0895141 -0.085824706 -0.08663358 -0.08774708 -0.0770677 -0.12465961
0.10592998 -0.13476865 -0.10627439 -0.06743526 0.030390395 -0.053885028 0.037676506 -0.025825532
00000000: cfa8 ffbd 1dc3 e7bd 374e 18bd e648 be3d
00000010: 7ac0 0d3c 6157 103d 660a 39ba ff48 773d
00000020: 77c7 d0bd b428 33be f36a babd 42ec 99bc
00000030: e994 763d 238f a0bd 2191 b23d fa86 c93c
00000040: ff6e 853d 53e0 bfbd 3091 1dbd 899b 9a3c
00000050: 0900 0f3e 0629 b5bd 6727 1a3c a4ab aabc
00000060: 0e9c 093d 5edf f8bd 5ff8 e2bc 896f 6bbc
00000070: a546 81bd 3f72 73bc 9370 01be 4908 0b3c
00000080: 7290 103d 1213 82bd 4f37 173d e0f3 36bd
00000090: 24b2 1bbd 0898 273d be5a 3ebe cfd1 a43c
000000a0: 44c4 9b3c 9f25 ea3c 9560 69bd ae8a a8bc
000000b0: bf2d 08bd e9f6 c9bd 618f bbbd 84aa 41bd
000000c0: d927 5ebd ae24 673c d909 cf3d 8b1e 98bd
000000d0: 3182 863c 7881 56bd 197a 07be dec1 b5bb
000000e0: abc1 c33b 00bd 61bd c1e7 2c3d 8377 e0ba
000000f0: 19ac dfbc 91c0 613d 7c64 1f3c 202c 5a3c
00000100: 90b4 99bd e07d 09bd 1ae8 efbb 1672 74bd
00000110: bcf4 2c3d bb1e 79bd 6cc3 bebd b712 43bd
00000120: 4bde ddbd 330d 38ba 6de8 7e3d 829a dfbc
00000130: 7137 9abd 4595 f5bb a3df 6dbd 143e 9d3c
00000140: f79b 033d 7c8f aa3d cf3a cbbc 46fa 8dbc
00000150: 9842 78bd 6eb0 95bd dc83 9abd aebf 75bd
00000160: 9739 2d3d dca8 08bd 22c1 9bbd 16fb cb3b
00000170: 715d 81bc bfe9 5bbd 3937 493d df67 08be
00000180: e466 a9bd e00c f3bd 6a4a 9cbd 3716 68bd
00000190: e787 6cbc 9641 8cbd 43e5 c3bd 9c3c bfbd
000001a0: fdee 32bd cea4 fe3c 86a9 6a3c 05c6 3ebb
000001b0: b74e 89bb a234 8937 f4ee 4cbd 80bb 1dbd
000001c0: cdd6 b4bc 04a2 7abc 62e4 f7bc 2dcb e0bd
000001d0: 0e8a f4bc 6afe 94bd 0ed9 88bd 4155 bc3c
000001e0: 36a4 97bd 4bd6 dcbb 7edc 02be f982 51bd
000001f0: bb64 03be e296 7ebd 355a cabc 1c4b 9abd
00000200: 5a0c 60bd 2e62 d1bb eb55 6c3c 9d3c 2ebd
00000210: 1798 bfbd 7327 90bd 6f1d a13d d9ef 7dbd
00000220: 9caa ae3c 64a4 1a3c d314 7fbd 71f2 94bd
00000230: 3c79 0fbe 5bba 5f3c 1096 ad3c 7551 18bc
00000240: 4157 e0b8 bfbb edbb 3b6d b5bd 5bb5 42bd
00000250: c5f4 b3ba e535 72be bf81 a8bd f110 153d
00000260: c35c 41bd 5c1e 6e3c b6d8 a2bd 7775 f8bc
00000270: 15d3 a63c 0840 40bd cbd4 90bd e141 8f3d
00000280: f056 cdbd c2ac 3b3d d69d 68bd 8f9d 0cbd
00000290: ef21 893d c524 01bd b553 97bd e110 4cbd
000002a0: 1398 8cbc 496b 243d e4e4 723d abc3 83bd
000002b0: 05aa a73c 0797 b83d 075f c0bc f3b5 88bd
000002c0: e66e 12be 6974 fbbd a725 753b 8a76 7c3d
000002d0: a672 83bd 6714 a53b 7c9d 1ebd 01c9 ef3c
000002e0: 070f babc 5129 81bd 477c 8dbd 2311 a93b
000002f0: a697 52bd 6ec2 0fbe 5273 413d caaf 1b3c
00000300: f0a0 473d 7b63 b2bc 3f63 16be 21d3 eabc
00000310: 0e41 1abd 7680 a9bc 198a 79bd c7b2 26bd
00000320: d9b3 913c daad acbd 168e 093c 4422 84bd
00000330: 3049 94bd f3dc 723d 4168 163d 39a4 d8bc
00000340: 3bb5 483c 4bd0 b3bd b1c2 c13b 1016 2f3c
00000350: a4ec 09bd 533d 44bc 9f0a e4bc 2f7f 1c3d
00000360: ae51 63bc 456b 5cbd dc7f 423d fdf0 153d
00000370: 905f 5bbd f829 15bd 5600 943c c2e3 023d
00000380: 5235 db3c 6aa3 78bb d93f 113d 9bbd 8c3c
00000390: 452a 0dbe 5f67 783d fbcf 203d 10b8 f1bc
000003a0: 0232 c8bd 145c 9dbd 4c1a 71bd b822 b2bd
000003b0: a0f7 963d 9151 743c 96ab 01be 915c 41bd
000003c0: f95a 2a3d 2997 28bd 2b53 b7bd ddc4 afbd
000003d0: f26c b1bd beb4 b3bd acd5 9dbd 8a4d ffbd
000003e0: d1f1 d83d cb00 0abe 63a6 d9bd 7f1b 8abd
000003f0: 47f5 f83c 8cb6 5cbd ae52 1a3d 1190 d3bc

net.4.bias f4 [256]
0.011313988 -0.03496657 0.04679669 -0.015622748 -0.031757746 0.01066128 -0.03436034 0.015825536
0.01789408 -0.0791839 0.03608702 0.022331994 -0.024695557 -0.01381909 0.05393745 0.045730628
0.053295705 0.0454775 0.00016963808 0.116349265 0.14578466 0.038745917 0.04652325 -0.022584071
-0.026877655 0.070764296 0.06801342 0.014484557 0.007508411 0.06091987 -0.10904298 0.075619034
-0.027105318 -0.040253416 -0.06774252 0.045628984 -0.0692097 0.013943229 0.029554997 0.024739547
-0.080002174 0.0092656305 -0.057167653 -0.053948957 -0.008137948 0.047240943 -0.02118237 -0.039109144
0.023603756 0.068683095 -0.02857923 -0.0036818932 0.08506274 0.056665286 -0.040429533 -0.09604506
-0.0327152 0.046976604 -0.021870382 -0.020739822 0.072403796 -0.053185124 -0.07948698 0.004790442
0.09415145 0.02096594 0.015467204 -0.09367134 0.038913194 -0.050045323 0.009833939 -0.07945725
0.024437446 0.07310588 -0.092341155 0.070948906 0.031933147 0.035905037 0.042287815 0.047918633
-0.036018316 -0.11096855 -0.018819273 0.040250313 0.030488413 0.0794527 -0.05275348 -0.019360552
0.011418449 0.047525957 0.117428266 0.099949785 -0.046965413 -0.055335496 0.053116232 0.020894513
-0.020127742 -0.03197008 -0.027545534 0.019379618 0.04996039 0.015263459 -0.056239277 -0.03868198
0.017754009 0.05348653 -0.009398401 0.06273919 0.038247135 -0.054780923 0.0809472 -0.048956353
-0.06047672 0.043368842 0.088919416 0.029289292 -0.051105715 0.1260134 -0.08711556 0.034147147
0.02261263 0.049939908 0.045401853 -0.06460653 0.029406153 0.027950859 0.015564582 0.080527574
-0.055449996 0.07312799 -0.10274675 0.006632051 -0.014650992 -0.10598315 0.029683804 0.062864676
0.032826766 0.028482035 0.01672175 0.06589811 -0.03359682 0.10160169 0.013220145 0.048407428
0.048270836 -0.05838679 -0.07630416 -0.043442134 0.03000383 -0.0023129804 0.015660781 -0.08617074
-0.091795854 0.020983865 -0.0090825865 -0.096219726 -0.012683718 0.06456215 0.06685256 0.022334825
-0.025757993 0.049599368 -0.05703019 -0.037489533 -0.01099221 0.08541295 0.11466774 0.036167763
-0.00787857 0.014616344 0.061124202 -0.013015383 -0.066583745 0.03469338 -0.017361466 0.07795188
0.026173942 0.065884285 -0.01928431 0.053050525 -0.033143222 0.09002221 -0.047658704 -0.013599189
0.059802633 0.018928234 -0.07402057 -0.04522 -0.020060271 -0.038680326 -0.036229018 0.0102614
-0.008898979 -0.081199095 -0.10574121 -0.026965866 0.035956267 -0.0094209835 0.0023322825 -0.036608435
-0.03493914 -0.09402529 0.07019939 0.038024202 0.09162112 -0.019814404 -0.09249177 0.021124957
-0.04018672 0.033580635 0.015542967 -0.015416695 0.11481494 -0.059059203 -0.0627179 -0.08059153
0.026580002 -0.101163134 0.05032986 0.049775522 -0.0037002992 0.05938809 0.042244934 0.05209266
-0.059995063 0.003002635 -0.06649205 -0.04155522 -0.004667164 0.06626887 0.04783674 -0.02783366
-0.015632154 0.025710959 -0.023238318 -0.080951944 0.024982385 -0.012258811 -0.08256008 -0.10296987
0.028308047 -0.06781149 -0.03228851 0.07609644 -0.01812316 0.016482526 0.029778037 -0.10266176
0.03585713 -0.033713296 0.0025976908 0.01284454 -0.0032115313 -0.03874948 0.009432619 0.12576911
00000000: 4e5e 393c 1b39 0fbd e3ad 3f3d 8ef6 7fbc
00000010: 6914 02bd a6ac 2e3c 6ebd 0cbd 8ea4 813c
00000020: 9b96 923c 2b2b a2bd fccf 133d 96f1 b63c
00000030: 564e cabc 7769 62bc 84ed 5c3d 0a50 3b3d
00000040: 994c 5a3d 9d46 3a3d e0e0 3139 8648 ee3d
00000050: 9348 153e 0ab4 1e3d 2a8f 3e3d 3b02 b9bc
00000060: 872e dcbc dfec 903d 9f4a 8b3d a350 6d3c
00000070: 1e09 f63b 1d87 793d ed51 dfbd 27de 9a3d
00000080: f90b debc c4e0 24bd 97bc 8abd 75e5 3a3d
00000090: d1bd 8dbd 2472 643c 521d f23c 97aa ca3c
000000a0: 2ed8 a3bd dfce 173c a128 6abd 95f9 5cbd
000000b0: 0755 05bc b87f 413d a686 adbc e930 20bd
000000c0: aa5c c13c b9a9 8c3d fd1e eabc eb4b 71bb
000000d0: 6035 ae3d dc19 683d 7099 25bd 46b3 c4bd
000000e0: 6000 06bd 8a6a 403d 8429 b3bc 8fe6 a9bc
000000f0: 7148 943d a5d8 59bd 12ca a2bd 24f9 9c3b
00000100: 7ad2 c03d c3c0 ab3c 286a 7d3c c2d6 bfbd
00000110: 7163 1f3d 53fc 4cbd 881e 213c 7cba a2bd
00000120: 0a31 c83c 89b8 953d 5c1d bdbd a94d 913d
00000130: 55cc 023d 2911 133d fd35 2d3d 5446 443d
00000140: f187 13bd 7b43 e3bd e02a 9abc 83dd 243d
00000150: d6c2 f93c 19b8 a23d 0814 58bd 059a 9ebc
00000160: 7214 3b3c 94aa 423d 3b7e f03d 79b2 cc3d
00000170: ce5e 40bd 79a7 62bd 6890 593d f82a ab3c
00000180: efe2 a4bc 0ff3 02bd 2ca7 e1bc 01c2 9e3c
00000190: 44a3 4c3d 9613 7a3c 285b 66bd ff70 1ebd
000001a0: db70 913c b114 5b3d c0fb 19bc 687d 803d
000001b0: 07a9 1c3d f661 60bd a5c7 a53d 7586 48bd
000001c0: 70b6 77bd 87a3 313d 621b b63d 19f0 ef3c
000001d0: 3a54 51bd a809 013e a569 b2bd e1dd 0b3d
000001e0: 1f3e b93c ca8d 4c3d 4bf7 393d 6e50 84bd
000001f0: 2ce5 f03c 33f9 e43c 9702 7f3c a4eb a43d
00000200: 891f 63bd 21c4 953d e36c d2bd ad51 d93b
00000210: b70a 70bc b20d d9bd 732b f33c 32bf 803d
00000220: 5c75 063d 2853 e93c 0dfc 883c 97f5 863d
00000230: d29c 09bd 8c14 d03d 4f99 583c de46 463d
00000240: a4b7 453d fd26 6fbd 5b45 9cbd 61f0 31bd
00000250: 98ca f53c 5f95 17bb 0a4b 803c 497a b0bd
00000260: 77ff bbbd 5be6 ab3c 21cf 14bc d90e c5bd
00000270: 5fcf 4fbc 2939 843d ffe9 883d 86f7 b63c
00000280: 6d02 d3bc b528 4b3d 7d98 69bd a08e 19bd
00000290: ac18 34bc fcec ae3d ecd6 ea3d a624 143d
000002a0: 1e15 01bc 6479 6f3c 5f5d 7a3d 793e 55bc
000002b0: 0f5d 88bd a51a 0e3d a239 8ebc 3ca5 9f3d
000002c0: bc6a d63c 57ee 863d 21fa 9dbc 824b 593d
000002d0: 30c1 07bd 905d b83d c635 43bd 22cf 5ebc
000002e0: 9bf3 743d 620f 9b3c 1998 97bd 9b38 39bd
000002f0: 7055 a4bc 436f 1ebd e164 14bd 6e1f 283c
00000300: 06cd 11bc b64b a6bd d98e d8bd 85e7 dcbc
00000310: e146 133d 785a 1abc 35d9 183b baf2 15bd
00000320: 581c 0fbd 5590 c0bd b3c4 8f3d 44bf 1b3d
00000330: dba3 bb3d d151 a2bc 536c bdbd 3f0e ad3c
00000340: d59a 24bd d98b 093d eea7 7e3c 4e96 7cbc
00000350: 1824 eb3d 10e8 71bd 3e72 80bd 2c0d a5bd
00000360: 4ebe d93c 9e2e cfbd af26 4e3d 6be1 4b3d
00000370: b880 72bb ed40 733d 0609 2d3d 1d5f 553d
00000380: 62bd 75bd dbc7 443b fc2c 88bd ce35 2abd
00000390: 02ef 98bb f9b7 873d 75f0 433d 6a03 e4bc
000003a0: 010f 80bc ca9f d23c 495e bebc 22ca a5bd
000003b0: dca7 cc3c 2ed9 48bc 4215 a9bd dee1 d2bd
000003c0: 47e6 e73c c0e0 8abd f540 04bd 73d8 9b3d
000003d0: 0577 94bc 5d06 873c 12f1 f33c 5440 d2bd
000003e0: edde 123d f416 0abd 053e 2a3b e871 523c
000003f0: 8e78 52bb c6b7 1ebd 468b 1a3c 9ec9 003e
