dnn/models/cls_50k.pt (torch, 278558 bytes, 19 tensors)

net.0.weight f4 [192, 52]
0	0x3d8f771c	0.0700514
1	0x3de734f3	0.11289396
2	0xbd593e91	-0.053038184
3	0x3d8deafb	0.069295846
4	0xbe1857ed	-0.14877291
5	0x3c9f85f6	0.019473057
6	0xbde0a002	-0.10968019
7	0xbd96c487	-0.07361703
8	0x3e130b44	0.14359766
9	0xbe0f7a8c	-0.14011592
10	0x3dcfbb9a	0.10143204
11	0x3d0a289b	0.03373013
12	0x3ae45241	0.0017419533
13	0xbd04784e	-0.032341294
14	0x3df073cb	0.11740836
15	0xbccbc022	-0.02487189
16	0x3e20180b	0.15634172
17	0xbc06b4d6	-0.008221826
18	0xbe4dd4cf	-0.20100711
19	0x3e147afc	0.1450004
20	0xbd226d00	-0.03965473
21	0x3d8deb08	0.06929594
22	0xbda4491e	-0.080217585
23	0x3df686b5	0.12037412
24	0xbe166a3c	-0.14688963
25	0xbd1462ce	-0.03622704
26	0xba1894ad	-0.0005820494
27	0xbde82f42	-0.11337139
28	0x3dec7622	0.115459695
29	0xbe35e817	-0.17764316
30	0x3dd086c9	0.10181958
31	0xbe1d6468	-0.15370333
32	0x3e62ca5f	0.22147511
33	0xbcb80bb7	-0.022466524
34	0xbdcdc7b0	-0.10047853
35	0xbcc80dd2	-0.024420653
36	0x3e2c9cfc	0.1685676
37	0x3d8990f8	0.06717104
38	0xbce05c21	-0.02738768
39	0x3e9b9c4e	0.3039269
40	0x3c6b0499	0.014344358
41	0x3d732474	0.059360936
42	0xbc6c0da2	-0.014407547
43	0x3d613355	0.054980595
44	0x3dfe1886	0.12407021
45	0x3d78d36e	0.06074851
46	0x3de851f3	0.113437556
47	0xbe0bb5d1	-0.13643576
48	0xbe06ff42	-0.1318331
49	0xbd8af10b	-0.067842565
50	0xbddaa593	-0.10676112
51	0xbdcd5802	-0.10026552
52	0xbe11ab38	-0.14225471
53	0x3cbd08bf	0.02307546
54	0x3d10aa8f	0.035318907
55	0x3d87b685	0.0662661
56	0x3d1e9a24	0.03872122
57	0xbd29909a	-0.04139767
58	0x3dbbe1c2	0.09173919
59	0xbdb5f3bf	-0.088843815
60	0x3d47a27f	0.048738953
61	0xbd3aa6e9	-0.045569334
62	0xba976aa8	-0.0011552172
63	0x3c1b4518	0.009476922
64	0x3d1e19d8	0.038598865
65	0x3a7e38ba	0.0009697784
66	0x3dc386ee	0.0954722
67	0xbd1ad496	-0.037800394
68	0xbd4d5783	-0.050132286
69	0xbdb4b24a	-0.088230684
70	0x3ecbca3b	0.39802727
71	0xbe2bdb93	-0.1678298
72	0x3e6620b4	0.22473413
73	0xbe3669f9	-0.17813863
74	0xbd3ab5d2	-0.045583554
75	0xbe2133b9	-0.15742387
76	0xbdcbef84	-0.09957793
77	0x3e57008d	0.20996304
78	0x3d2a3c5f	0.04156148
79	0xbce9efb9	-0.028556691
80	0xbdcc547d	-0.09977052
81	0xbd72bda9	-0.059262905
82	0xbc83af51	-0.016074808
83	0xbda2568a	-0.07926662
84	0xbcf3ed42	-0.02977622
85	0x3d998872	0.07496728
86	0xbd0434a6	-0.032276772
87	0xbe3009db	-0.1719126
88	0xbd296d86	-0.041364215
89	0x3d3e7483	0.046497833
90	0x3d00627a	0.031343915
91	0xbc28638f	-0.010277643
92	0xbd30ce1b	-0.043165307
93	0x3e47ebd8	0.19523561
94	0xbe521231	-0.20514752
95	0xbda61f9a	-0.08111496
96	0x3bb8b172	0.0056363875
97	0xbbd5c2ef	-0.006523482
98	0xbc844814	-0.01614765
99	0x3dd873a6	0.10568933
100	0xbcf3777d	-0.029720062
101	0x3abd3076	0.0014433998
102	0xbd672391	-0.056430403
103	0xbd0de1f2	-0.034639306
104	0xbd0c0f29	-0.034194145
105	0xbdc077e3	-0.093978666
106	0xbe158c6f	-0.14604352
107	0xbeb7e469	-0.3591645
108	0xbe7c7977	-0.2465571
109	0x3ca30b62	0.019902889
110	0x3dcf99fc	0.10136792
111	0xbd87d78a	-0.06632908
112	0x3c009ada	0.0078494195
113	0xbdd5f1d1	-0.104465134
114	0x3c90f2f0	0.017693967
115	0xbc0fbed2	-0.008773522
116	0x3c936e58	0.017996952
117	0xbda8798c	-0.08226308
118	0xbd9563b2	-0.07294406
119	0xbde71edc	-0.11285183
120	0xbb52c8cc	-0.0032163141
121	0xbd8a1bab	-0.067435585
122	0xbdef82c0	-0.116948605
123	0xbd2c8705	-0.042120952
124	0xbe104def	-0.1409223
125	0xbdc199d5	-0.09453169
126	0xbdc4c792	-0.096083775
127	0xbc4b0eee	-0.012393696
128	0x3e53c18b	0.206793
129	0xbddeeeaf	-0.10885369
130	0x3e78e850	0.2430737
131	0x3bfa9eb9	0.0076483157
132	0xbda74454	-0.081673294
133	0x3c770245	0.015076225
134	0x3d050466	0.032474898
135	0xbdb95c14	-0.09050766
136	0xbda8f376	-0.082495615
137	0xbe7f1432	-0.24910048
138	0x3e526415	0.20545991
139	0xbd0001cb	-0.03125171
140	0x3da70d67	0.08156853
141	0xbdd27919	-0.10277004
142	0x3d96e18d	0.07367239
143	0xbd600ceb	-0.05469982
144	0xbcc4f7a4	-0.024043866
145	0xbc3c6e61	-0.011500926
146	0xbd6ad058	-0.0573276
147	0x3e0a40aa	0.1350123
148	0x3e2229d1	0.15836264
149	0xbcdc5328	-0.02689512
150	0x39c9eb11	0.00038512846
151	0x3c7690ac	0.015049141
152	0xbbdf03da	-0.006805879
153	0xbdebe565	-0.11518363
154	0x3df17431	0.1178974
155	0xbd9ca157	-0.07647961
156	0x3dc190dd	0.094514586
157	0x3c7593e6	0.014988875
158	0x3d7c57e7	0.061607268
159	0xbd01bbed	-0.03167336
160	0x3dffe9e9	0.12495787
161	0x3da72f93	0.08163371
162	0x3c9e2b34	0.01930771
163	0xbe4481ce	-0.19190142
164	0x3d4691c6	0.048478864
165	0x3cdcf20e	0.02697089
166	0xbd01ac23	-0.031658303
167	0x3e10a77b	0.14126389
168	0x3d571f85	0.052520294
169	0x3d697a0c	0.05700116
170	0xbe6ee000	-0.23327637
171	0xbe3f55a3	-0.18685012
172	0xbd9c2478	-0.07624143
173	0xbe18ee57	-0.1493467
174	0xbdf72710	-0.120679975
175	0x3cfa35e0	0.030543268
176	0xbd71b653	-0.05901177
177	0xbdff9ad6	-0.124807045
178	0x3e019512	0.12654522
179	0xbd1742d7	-0.036928978
180	0xbd086741	-0.033301596
181	0x3c2785cc	0.010224771
182	0x3cab2b39	0.020894634
183	0xbdf4fdd4	-0.119624764
184	0x3df95ba7	0.121756844
185	0xbcf49b25	-0.029859135
186	0x3d71a981	0.058999542
187	0xbde629e3	-0.11238458
188	0xbc5fc193	-0.0136569915
189	0xbd2942f2	-0.04132361
190	0xbd1b903d	-0.037979353
191	0xbda6a22e	-0.08136402
192	0x3e3205f7	0.17385088
193	0xbd1aaa29	-0.037759934
194	0x3d21df28	0.03951946
195	0x3d82538c	0.063635916
196	0xbe0e0b07	-0.13871394
197	0x3de25f9f	0.110533945
198	0x3ba6e1d5	0.0050928392
199	0x3e3d8661	0.18508293
200	0xbe2e70c0	-0.17035198
201	0xbdf1cee8	-0.11807042
202	0x3c498ad7	0.012301168
203	0x3e45e57c	0.19325823
204	0x3d947486	0.072487876
205	0xbd91a831	-0.07112158
206	0xbd96970b	-0.07353028
207	0xbe10d03f	-0.1414194
208	0xbced123a	-0.028939355
209	0x3d1d399c	0.03838502
210	0x3cae9a80	0.021313906
211	0x3c82f24d	0.015984679
212	0xbe3b42f8	-0.18287265
213	0xbc8f3d07	-0.017485155
214	0xbd0a42b0	-0.033755004
215	0x3da7d418	0.081947505
216	0x3d926ba4	0.07149437
217	0x3b30132a	0.0026866891
218	0x3ca24dbe	0.019812461
219	0xbdb932a4	-0.09042862
220	0xbe8c5e55	-0.2741572
221	0x3df7ed03	0.12105753
222	0xbd246c38	-0.040142268
223	0xbcc6377e	-0.024196383
224	0xbe2146e2	-0.15749696
225	0x3da2c628	0.079479516
226	0x3e3c03f9	0.1836089
227	0xbe04180f	-0.12899803
228	0x3c4154ca	0.0118
229	0xbe79505a	-0.24347058
230	0xbe25d2fd	-0.16193767
231	0x3d00bfcf	0.031432923
232	0xbd98ba5e	-0.07457422
233	0x3ddef6cf	0.10886919
234	0x3cf1c4d0	0.029512793
235	0x3dc9f85c	0.09861824
236	0x3d1422ce	0.036166005
237	0xbdb9c646	-0.09071021
238	0xbddaf19a	-0.10690613
239	0xbe8ea1a9	-0.27857712
240	0x3dafa6e6	0.08576755
241	0xbd3cc0a8	-0.04608217
242	0xbe0ab690	-0.13546205
243	0xbd110f55	-0.035415012
244	0xbc68eb11	-0.0142162
245	0xbe5d23fd	-0.2159576
246	0xbd599556	-0.053120933
247	0x3e3362c3	0.17518143
248	0x3e403c45	0.18772991
249	0xbc8161ec	-0.015793763
250	0x3bc67fae	0.006057701
251	0xbd6c813c	-0.057740435
252	0x3d79b407	0.060962703
253	0xbdf199fc	-0.11796948
254	0xbdcf3b36	-0.101187155
255	0xbd5d4480	-0.054020405

net.0.bias f4 [192]
0	0xbc3073ab	-0.010769765
1	0x3da50787	0.08058076
2	0xbe0a9ea1	-0.13537075
3	0xbe08833b	-0.1333131
4	0x3bd22beb	0.006413927
5	0xbd6c80cf	-0.05774003
6	0x3d895935	0.06706468
7	0x3d432ea1	0.04765189
8	0x3cfa0707	0.030520929
9	0x3d5978ff	0.053093906
10	0x3e0025bf	0.12514399
11	0x3cbb5d4a	0.022871632
12	0x3db99107	0.09060865
13	0xbd9e8771	-0.07740677
14	0x3de9d29e	0.11417125
15	0xbd28668d	-0.041113425
16	0x3d94f754	0.072737366
17	0xbdec310d	-0.11532793
18	0xbda8af75	-0.08236591
19	0xbda82dfe	-0.08211897
20	0x3d949a6b	0.072560154
21	0xbb80fe55	-0.0039365687
22	0xbe00f871	-0.12594773
23	0x3e0bc10a	0.13647857
24	0x3d1cebc9	0.0383108
25	0x3df64a2d	0.12025867
26	0x3c847e5f	0.01617354
27	0x3cac7f34	0.021056749
28	0x3dcc66fe	0.09980582
29	0xbdba0c87	-0.09084421
30	0x3e0996d0	0.13436437
31	0xbdb4a0b7	-0.088197164
32	0x3c1f01d4	0.009705026
33	0xbdb4ee7d	-0.088345505
34	0xbdbc8ffa	-0.09207149
35	0x3dd5a18e	0.10431205
36	0xbd13dc5f	-0.036098834
37	0xbcd61d8e	-0.02613714
38	0x3deffbe4	0.11717966
39	0x3e0acfba	0.13555804
40	0xbe00ab2c	-0.12565297
41	0xb6a1607d	-4.8094066e-06
42	0x3d1e1db4	0.038602546
43	0x3e07dbb2	0.13267401
44	0xbd805952	-0.062670365
45	0xbd3ba7ad	-0.045814205
46	0xbda5f350	-0.08103049
47	0x3d15d0b1	0.036575977
48	0x3d097c9c	0.033566102
49	0x3aba6d23	0.0014223199
50	0xbc6b65e7	-0.014367557
51	0xbdc551ee	-0.096347675
52	0xbd7d992b	-0.06191365
53	0xbd58d375	-0.052936036
54	0x3d1462b6	0.03622695
55	0x3d6f1257	0.0583671
56	0x3d896cc2	0.06710197
57	0xbdd883f1	-0.10572041
58	0xbc2c097a	-0.010500306
59	0xbcc6ef6e	-0.02428409
60	0x3e0e686b	0.1390702
61	0x3dd0f88a	0.10203655
62	0xbdd66f90	-0.104704976
63	0xbd92d933	-0.07170334
64	0xbdd80692	-0.10548128
65	0xbd07d853	-0.033165287
66	0xbdf8dbfe	-0.12151335
67	0x3d86287d	0.06550691
68	0xbd7ae34a	-0.061251916
69	0xbd90cea8	-0.070706666
70	0x3b83d3f9	0.004023072
71	0xbd346b86	-0.044047855
72	0x3dd2a613	0.102855824
73	0x3dfe4088	0.12414652
74	0xbdffeecf	-0.12496721
75	0x3d82bcf2	0.06383695
76	0x3b3a7afb	0.002845465
77	0x3d814d09	0.063135214
78	0xbd586aa6	-0.052836083
79	0xbc2381d6	-0.009979686
80	0xb9f89226	-0.00047411135
81	0x3d3f5d44	0.046719804
82	0x3d882f20	0.066496134
83	0x3d57a4b1	0.052647296
84	0x3c934ba9	0.017980414
85	0xbde4ccfb	-0.111719094
86	0xbda21627	-0.079143815
87	0xbda66cae	-0.08126198
88	0xbe0ceaf2	-0.137615
89	0x3e08428a	0.13306633
90	0xbd782e22	-0.06059087
91	0xbdb4bba8	-0.08824855
92	0xbd85e2f6	-0.0653743
93	0x3d9a3bc9	0.07530934
94	0xbdb0b424	-0.08628109
95	0xbde9b063	-0.11410596
96	0xbdd1979e	-0.10233997
97	0x3d00ce1c	0.03144656
98	0xbb4520a3	-0.0030079267
99	0xbdff9ff2	-0.12481679
100	0xbdc6660f	-0.09687435
101	0xbdf52190	-0.11969292
102	0x3d4928b8	0.049111098
103	0x3d7c0659	0.06152949
104	0x3cba56c0	0.022746444
105	0xbd419131	-0.047257606
106	0xbd9883f6	-0.074470446
107	0x3d61e8aa	0.055153526
108	0xbd0decfb	-0.03464983
109	0xbcaace75	-0.0208504
110	0xbd3bbb89	-0.045833144
111	0x3cf3a4cb	0.029741665
112	0x3d095a06	0.03353312
113	0x3deb6ce0	0.11495376
114	0x3e02b569	0.12764515
115	0xbd138ed7	-0.036024895
116	0x3cb8a45a	0.022539306
117	0xbdc063d0	-0.09394038
118	0xbdd69f35	-0.10479585
119	0x3de8fa79	0.11375899
120	0x3c90de29	0.01768406
121	0xbd8d094e	-0.0688654
122	0x3d7b20aa	0.061310448
123	0x3d500305	0.05078413
124	0x3d498953	0.04920323
125	0x3d653533	0.055958938
126	0x3bcd96af	0.0062740664
127	0xbdcf6251	-0.10126174
128	0xbe001abf	-0.12510203
129	0x3e087e61	0.1332946
130	0x3dc50f0c	0.096220106
131	0xbddd1a25	-0.10796002
132	0x3ddcfdca	0.10790594
133	0xbe020580	-0.1269741
134	0x3dba4ed8	0.090970695
135	0x3dcb1410	0.09915936
136	0x3db279eb	0.0871466
137	0x3d6e227c	0.058138356
138	0xbdace755	-0.084425606
139	0xbd6d119d	-0.057878125
140	0x3d02d9cf	0.031946
141	0x3d5d4e7d	0.05402993
142	0x3dfc22b5	0.12311307
143	0x3bef71af	0.0073072533
144	0x3d3d550f	0.046223696
145	0xbdd173a6	-0.10227136
146	0xbcf0d8da	-0.029400278
147	0x3d9ad4b2	0.075601
148	0x3c330d6e	0.010928495
149	0x3de1f058	0.1103217
150	0xbde31f19	-0.11089916
151	0xbdb9d56c	-0.0907391
152	0x3d3a7d5d	0.045529712
153	0xbb81182c	-0.003939649
154	0xbdf2a710	-0.11848271
155	0x3d748028	0.05969253
156	0x3b4d9627	0.0031370015
157	0x3d19f42a	0.03758637
158	0x3d03dee7	0.032194998
159	0xbdc2d1a1	-0.0951264
160	0xbdbcaa59	-0.09212179
161	0xbde6e376	-0.112738535
162	0x3dcdac5c	0.100426406
163	0xbda157ba	-0.07878061
164	0x3e01d770	0.12679839
165	0xbd1d09f8	-0.038339585
166	0x3d0195cd	0.031637
167	0x3e0714ec	0.13191575
168	0xbd9878ed	-0.0744494
169	0xbe0767d9	-0.13223208
170	0x3c9d4d4d	0.019201899
171	0xbdca0047	-0.09863334
172	0x3d9f11ca	0.07767065
173	0x3d650c10	0.055919707
174	0x3dd454e6	0.103677556
175	0xbc897bc0	-0.016782641
176	0xbdb7b040	-0.08969164
177	0xbe030afe	-0.12797162
178	0xbdb6a8a6	-0.08918886
179	0x3e009433	0.12556534
180	0xbd06f889	-0.032951865
181	0xbab7c8e2	-0.001402166
182	0xbcd07709	-0.025447385
183	0xbd91397e	-0.07091044
184	0x3debcdb9	0.11513848
185	0xbd12fb79	-0.035884354
186	0xbd849e92	-0.064755574
187	0x3e03ecd4	0.12883312
188	0x3d9fca10	0.07802212
189	0x3d91d2a6	0.07120256
190	0x3dd0f009	0.10202033
191	0xbdb1ab01	-0.086751945

net.1.weight f4 [192]
0	0x3f5a69c9	0.85317665
1	0x3f810bdf	1.0081748
2	0x3f880614	1.0626855
3	0x3f829e7d	1.0204617
4	0x3f7cd7d7	0.98766845
5	0x3f77ddef	0.9682302
6	0x3f87e1c7	1.0615777
7	0x3f75d594	0.9602902
8	0x3f857dec	1.0429053
9	0x3f831f69	1.0243961
10	0x3f85c160	1.0449638
11	0x3f5b4536	0.8565248
12	0x3f7b778c	0.9822929
13	0x3f6cae4b	0.9245345
14	0x3f6a793c	0.9159124
15	0x3f89b134	1.0757203
16	0x3f74f13f	0.9568061
17	0x3f521b55	0.82072955
18	0x3f7ffa36	0.99991167
19	0x3f776090	0.9663172
20	0x3f79f749	0.9764295
21	0x3f632a84	0.8873675
22	0x3f7c78d9	0.986219
23	0x3f819dbf	1.0126265
24	0x3f86b2d4	1.0523324
25	0x3f8cdabe	1.1004255
26	0x3f7c6bf2	0.9860221
27	0x3f85bce6	1.0448272
28	0x3f637cd2	0.88862336
29	0x3f7a037f	0.97661585
30	0x3f79a30e	0.97514427
31	0x3f6f36fa	0.9344326
32	0x3f7a508e	0.97779167
33	0x3f702354	0.93803906
34	0x3f8304fd	1.0235897
35	0x3f71b33e	0.94414127
36	0x3f79cb94	0.9757626
37	0x3f60028d	0.8750389
38	0x3f85f5c9	1.0465633
39	0x3f801c50	1.000864
40	0x3f74b6af	0.95591253
41	0x3f7eaf22	0.9948598
42	0x3f5e0fa8	0.8674264
43	0x3f7da256	0.9907583
44	0x3f7b5fc4	0.98193
45	0x3f73aa68	0.95181894
46	0x3f85a643	1.0441364
47	0x3f66bfd9	0.90136486
48	0x3f6605fa	0.8985287
49	0x3f7deeaa	0.991923
50	0x3f88a309	1.0674754
51	0x3f71bd91	0.9442988
52	0x3f6e074e	0.92979896
53	0x3f75b1ef	0.9597463
54	0x3f5bdd82	0.8588487
55	0x3f64bc3f	0.8934974
56	0x3f77bee6	0.9677566
57	0x3f6a43bd	0.9150961
58	0x3f6f67e1	0.9351788
59	0x3f8697dd	1.0515095
60	0x3f7a731b	0.97831887
61	0x3f82b3d2	1.0211127
62	0x3f68a584	0.90877557
63	0x3f79dc92	0.9760219
64	0x3f6cb48c	0.9246299
65	0x3f7ae015	0.9799817
66	0x3f7c0b99	0.98455197
67	0x3f7c0bd2	0.98455536
68	0x3f7eff63	0.9960844
69	0x3f7b5f02	0.98191845
70	0x3f7fe324	0.99955964
71	0x3f67c69a	0.90537417
72	0x3f74d356	0.95634973
73	0x3f721ff8	0.9458003
74	0x3f732829	0.94983155
75	0x3f80ae0f	1.0053118
76	0x3f6f0ca8	0.93378687
77	0x3f933526	1.1500595
78	0x3f74ed22	0.95674336
79	0x3f807f4c	1.0038848
80	0x3f74d1fb	0.95632905
81	0x3f68db81	0.90959936
82	0x3f78a5a1	0.9712773
83	0x3f7c7cd3	0.98627967
84	0x3f75103b	0.9572789
85	0x3f7abc3b	0.97943467
86	0x3f7f1f6f	0.9965734
87	0x3f851dec	1.0399756
88	0x3f609b4b	0.8773696
89	0x3f8410f0	1.0317669
90	0x3f7ce5c8	0.9878812
91	0x3f84a4a2	1.0362742
92	0x3f65c9b5	0.89760906
93	0x3f5ab175	0.8542703
94	0x3f828052	1.019541
95	0x3f607ca2	0.87690175
96	0x3f5f6506	0.87263525
97	0x3f7a9248	0.9787946
98	0x3f6e956c	0.9319675
99	0x3f81780b	1.0114759
100	0x3f7444dc	0.9541757
101	0x3f7aede8	0.98019266
102	0x3f833cb0	1.0252895
103	0x3f674f3a	0.90355265
104	0x3f89d5d2	1.0768378
105	0x3f762b47	0.96159786
106	0x3f751fe5	0.9575179
107	0x3f66f1c5	0.9021266
108	0x3f6f1400	0.9338989
109	0x3f84ca9f	1.0374335
110	0x3f791287	0.97293895
111	0x3f7ece1e	0.9953326
112	0x3f729295	0.94754916
113	0x3f7cd94e	0.9876908
114	0x3f870f51	1.0551549
115	0x3f8971e4	1.0737882
116	0x3f8285bf	1.0197066
117	0x3f842f53	1.0326942
118	0x3f68bc3a	0.9091221
119	0x3f80d638	1.0065374
120	0x3f5fddb6	0.8744768
121	0x3f7a2a1b	0.977205
122	0x3f7fb12d	0.99879724
123	0x3f7abaf7	0.97941536
124	0x3f7c1600	0.9847107
125	0x3f7a5490	0.9778528
126	0x3f7bc51c	0.9834764
127	0x3f82537f	1.0181731
128	0x3f75bcf9	0.95991474
129	0x3f707b8f	0.93938535
130	0x3f70d3f4	0.94073415
131	0x3f7b612e	0.9819516
132	0x3f84f59c	1.0387454
133	0x3f7cc4d4	0.98737836
134	0x3f68c0f4	0.90919423
135	0x3f744e31	0.9543181
136	0x3f797f2a	0.9745966
137	0x3f83b3ee	1.0289285
138	0x3f7f91aa	0.9983164
139	0x3f688a4c	0.90836024
140	0x3f7b53d3	0.9817478
141	0x3f83b93a	1.0290902
142	0x3f71cc39	0.94452244
143	0x3f72d388	0.9485402
144	0x3f7f9c71	0.99848086
145	0x3f778ad6	0.9669622
146	0x3f8a5f8f	1.0810412
147	0x3f85ee30	1.0463314
148	0x3f78672f	0.97032446
149	0x3f73c9c2	0.95229733
150	0x3f7a12d0	0.97684956
151	0x3f6ebcbb	0.9325673
152	0x3f7e62c2	0.9936944
153	0x3f86cdd0	1.0531559
154	0x3f78d1fe	0.9719542
155	0x3f6fdc0a	0.9369513
156	0x3f6c8e69	0.924048
157	0x3f81d6d7	1.0143689
158	0x3f6df546	0.9295238
159	0x3f6bdd4a	0.92134535
160	0x3f60ef3f	0.8786506
161	0x3f636fba	0.88842356
162	0x3f798fcb	0.97485036
163	0x3f73c5f4	0.9522393
164	0x3f7dae45	0.9909404
165	0x3f829da8	1.0204363
166	0x3f8bdc2e	1.0926569
167	0x3f7ec754	0.995229
168	0x3f69e0e1	0.9135876
169	0x3f4f6601	0.8101502
170	0x3f756def	0.9587087
171	0x3f88d832	1.0690978
172	0x3f709203	0.93972796
173	0x3f7fdfe2	0.99950993
174	0x3f78b930	0.97157574
175	0x3f711885	0.9417804
176	0x3f7a2f58	0.9772849
177	0x3f70fa0c	0.9413154
178	0x3f6fd511	0.9368449
179	0x3f731200	0.9494934
180	0x3f8b98e8	1.0906038
181	0x3f6e30ae	0.9304303
182	0x3f839d7b	1.0282434
183	0x3f6a4359	0.91509014
184	0x3f82b927	1.0212754
185	0x3f7fab73	0.99870986
186	0x3f6c2a34	0.92251897
187	0x3f55f41a	0.83575594
188	0x3f801653	1.0006813
189	0x3f7f891f	0.99818605
190	0x3f755fa1	0.95849043
191	0x3f8b85dd	1.0900227

net.1.bias f4 [192]
0	0xbdb3cac0	-0.08778906
1	0xbe072f3a	-0.13201609
2	0xbe215b0f	-0.15757392
3	0xbe1c32a4	-0.15253693
4	0xbe5f8034	-0.2182625
5	0xbe3c8d32	-0.18413237
6	0xbe3f9a65	-0.1871124
7	0xbc80f3f1	-0.01574132
8	0xbd84e4db	-0.06488963
9	0xbdfe48a5	-0.124161996
10	0xbc81868c	-0.015811227
11	0xbdce4a86	-0.10072808
12	0xbe208cdf	-0.15678738
13	0xbddc35d7	-0.10752457
14	0xbe1d2e73	-0.1534975
15	0x3cc703b3	0.024293756
16	0xbe62527d	-0.2210178
17	0xbe028402	-0.1274567
18	0xbe05dcc0	-0.1307249
19	0xbdc19c2f	-0.09453618
20	0xbddf7a2c	-0.10911974
21	0xbdee5d96	-0.11638944
22	0xbe424341	-0.18970968
23	0xbe3af135	-0.18256076
24	0xbe7d7837	-0.2475289
25	0xbe31bafd	-0.17356487
26	0xbd46e9e7	-0.04856291
27	0xbd94e054	-0.0726935
28	0xbd488097	-0.048950758
29	0xbe0d3ad5	-0.13791974
30	0x3bf89d89	0.007587139
31	0xbe754e07	-0.23955546
32	0xbe2ae84a	-0.16690174
33	0xbe150fc2	-0.14556792
34	0xbe26516e	-0.16242
35	0xbdfe103f	-0.124054424
36	0xbe8d5e65	-0.2761108
37	0xbdef09cf	-0.11671793
38	0x3ba79539	0.0051142243
39	0xbc817864	-0.015804477
40	0xbe2b4acc	-0.16727751
41	0xbe54725d	-0.20746751
42	0xbeacda3d	-0.33760253
43	0xbed30c1d	-0.4122018
44	0xbcdc040d	-0.0268574
45	0xbd6546d0	-0.055975735
46	0xbe03a9ca	-0.12857738
47	0xbe11bc2f	-0.14231943
48	0xbe81bafa	-0.25337964
49	0xbe0b1889	-0.13583578
50	0xbc353c9e	-0.011061816
51	0xbec0982e	-0.37616104
52	0xbe018f03	-0.12652211
53	0xbdcde012	-0.10052504
54	0xbe9640bf	-0.29346272
55	0xbdea90c7	-0.11453395
56	0xbdb65104	-0.08902171
57	0xbe69244e	-0.22767755
58	0xbe08f8dd	-0.13376184
59	0x3d583aa8	0.052790314
60	0xbea731fa	-0.32655317
61	0xbd993780	-0.07481289
62	0xbe4d0412	-0.20021084
63	0xbe70f774	-0.23531896
64	0xbd9e9484	-0.07743171
65	0xbe4ca3d5	-0.19984372
66	0xbde3315a	-0.110933974
67	0xbd9946a8	-0.0748418
68	0xbe0068f3	-0.12540035
69	0xbe43357c	-0.19063371
70	0xbe21caa4	-0.15799958
71	0xbe676780	-0.22598076
72	0xbe22ef8b	-0.15911691
73	0xbdebd6c0	-0.1151557
74	0xbea095bb	-0.31364235
75	0xbe0440a4	-0.12915283
76	0xbd03f9f9	-0.032220814
77	0xbdde6a19	-0.1086008
78	0xbe1b2ce5	-0.15153845
79	0xbe0b5cb7	-0.13609587
80	0xbd3a9e51	-0.04556114
81	0xbe21cb76	-0.1580027
82	0xbe9fedc3	-0.31236085
83	0xbe2f0420	-0.17091417
84	0xbe24ee98	-0.16106641
85	0xbe4cbed9	-0.19994678
86	0xbe75a17b	-0.23987381
87	0xbd9c4a44	-0.076313525
88	0xbdbbc776	-0.091689035
89	0xbe92a3d2	-0.2864061
90	0xbd8fd4e1	-0.07023025
91	0xbe6d9c0a	-0.23204055
92	0xbdad4e77	-0.084622316
93	0xbe2e502e	-0.17022774
94	0xbe70c5ac	-0.23512906
95	0xbe1526a6	-0.14565524
96	0xbdf9276d	-0.12165723
97	0x3c267d97	0.010161779
98	0xbec4c0a7	-0.38428232
99	0xbd37b24c	-0.04484777
100	0xbe2ed5f7	-0.17073809
101	0xbdbadcbc	-0.09124133
102	0xbd6438e5	-0.05571832
103	0xbe5988bf	-0.2124357
104	0xbd35d678	-0.044393986
105	0xbdd9a4cf	-0.10627138
106	0xbdaff094	-0.085908085
107	0xbde93772	-0.113875285
108	0xbe214e2a	-0.15752473
109	0xbe1b1370	-0.15144134
110	0xbe3c7c6a	-0.18406835
111	0xbe0283ee	-0.1274564
112	0xbe4845a0	-0.1955781
113	0xbe0bad08	-0.13640225
114	0xbd480205	-0.04883005
115	0xbcac3e87	-0.02102591
116	0xbe99d0fe	-0.3004226
117	0xbe484cb7	-0.19560514
118	0xbe332c67	-0.17497407
119	0xbe181545	-0.14851864
120	0xbe6dfc9e	-0.23240897
121	0x3d2d4bad	0.0423085
122	0xbe905820	-0.28192234
123	0xbd9c741a	-0.07639332
124	0xbe09c723	-0.13454871
125	0xbe169f93	-0.1470931
126	0xbe261a81	-0.16221048
127	0xbd12fc2d	-0.035885025
128	0xbe18dfbb	-0.14929096
129	0xbddc8100	-0.10766792
130	0xbde28442	-0.110603824
131	0xbe8e8b9b	-0.27840886
132	0xbdde7b53	-0.10863366
133	0xbd4efeba	-0.050535895
134	0xbe211804	-0.15731817
135	0xbe4c74b5	-0.19966395
136	0xbe04cce5	-0.12968786
137	0xbe70306c	-0.23455971
138	0xbe2c6472	-0.16835192
139	0xbe3825fb	-0.17983238
140	0xbe1e6147	-0.15466796
141	0xbe2b2c2f	-0.16716073
142	0xbeae0af3	-0.3399273
143	0xbe0eaf49	-0.13934053
144	0xbd9c8a69	-0.07643587
145	0xbe45388a	-0.19259849
146	0xbe834289	-0.256367
147	0xbc271795	-0.0101984935
148	0xbe5b96fe	-0.21444318
149	0xbe4be4a4	-0.19911438
150	0xbe351dae	-0.17687103
151	0xbdf604e2	-0.1201265
152	0x3d49ac9e	0.049236886
153	0xbee35913	-0.44403896
154	0xbe2e64b1	-0.17030598
155	0xbe29c38d	-0.16578503
156	0xbe675a70	-0.22593093
157	0xbe0e812a	-0.1391646
158	0xbe136e94	-0.14397651
159	0xbe0d98c8	-0.13827813
160	0xbe52ec08	-0.20597851
161	0xbdd53fd8	-0.10412568
162	0xbd6f0d8c	-0.05836253
163	0xbd33aae8	-0.04386416
164	0xbe10132b	-0.14069812
165	0xbde38b22	-0.11110522
166	0xbe2b6023	-0.16735892
167	0xbe89e667	-0.26933596
168	0xbdd1975e	-0.10233949
169	0xbde45cac	-0.11150488
170	0xbdcbf9e6	-0.09959774
171	0xbe41c384	-0.1892224
172	0xbe82c31c	-0.25539482
173	0xbdd8284f	-0.10554563
174	0xbe2690a3	-0.16266112
175	0xbdc7641d	-0.09735892
176	0xbdeda485	-0.11603645
177	0xbdca054a	-0.0986429
178	0xbe4b4aa5	-0.19852693
179	0xbeb5003a	-0.35351735
180	0xbdb4bb71	-0.08824814
181	0xbe82f5a7	-0.25578043
182	0xbde6d2ab	-0.112706505
183	0xbe51555b	-0.20442717
184	0xbe3c4814	-0.1838687
185	0xbd9ecc12	-0.07753767
186	0xbdd1c7b8	-0.102431715
187	0xbe0c3e37	-0.13695608
188	0xbde70cbf	-0.11281728
189	0xbdb93a2c	-0.090442985
190	0xbdc5ce02	-0.096584335
191	0xbe7095e7	-0.23494683

net.1.running_mean f4 [192]
0	0x3c58f08d	0.0132409455
1	0x3d113bb9	0.035457347
2	0xbe0d2e21	-0.13787128
3	0xbe4da60b	-0.20082872
4	0xbe031ae3	-0.12803225
5	0xbd4e1dcb	-0.05032138
6	0xbd256a3c	-0.040384516
7	0x3d0df4a5	0.03465714
8	0xbd7c4c40	-0.061596155
9	0xbc7d2f5e	-0.015453188
10	0xbd091446	-0.0334666
11	0x3d89a468	0.06720811
12	0x3ce481d7	0.027893944
13	0x3d83373d	0.0640702
14	0x3d04afba	0.03239415
15	0xbcdfab05	-0.027303228
16	0x3e1ba7d4	0.1520074
17	0xbe9b86ae	-0.3037619
18	0x3b882dea	0.004155864
19	0xbdfba468	-0.122872174
20	0xbc3d073f	-0.011537372
21	0xbd922a57	-0.07136982
22	0xbe656375	-0.22401221
23	0x3e3ba45f	0.18324421
24	0x3d36b5cc	0.04460697
25	0x3e158683	0.14602093
26	0xbe16032b	-0.14649646
27	0x3c957277	0.018243058
28	0xbb12b48a	-0.0022385442
29	0xbd8b8669	-0.06812746
30	0x3e2a9628	0.16658843
31	0xbde2967c	-0.11063859
32	0x3e0f42d6	0.1399034
33	0xbde96aaa	-0.11397298
34	0xbddd9cb5	-0.10820905
35	0x3e4d82c4	0.20069414
36	0xbe42b56d	-0.19014521
37	0xbd0e2906	-0.03470709
38	0xbbc5317d	-0.0060178624
39	0x3e8b1211	0.2716222
40	0x3dd9ea44	0.10640386
41	0x3cc45b75	0.023969391
42	0xbb3ad14e	-0.0028506103
43	0x3e07de02	0.13268283
44	0xbd983df0	-0.07433689
45	0xbdb91af0	-0.09038341
46	0xbcd12d9b	-0.025534442
47	0xbc0438ed	-0.008070213
48	0x3d94c8bd	0.0726485
49	0x3d5b7c95	0.053585608
50	0xbb01cff1	-0.001980778
51	0xbdb8e4ca	-0.09028013
52	0x3d0f9067	0.035049822
53	0xbd5720f4	-0.05252166
54	0x3be1fee9	0.0068968427
55	0x3e6f8105	0.23389061
56	0x3e09cc65	0.13456877
57	0xbbdaf02f	-0.006681464
58	0x3dbf8431	0.093513854
59	0x3d045fa1	0.03231776
60	0x3e685d96	0.2269195
61	0x3e8a4d36	0.27012032
62	0xbdb605fe	-0.08887862
63	0xbe30c673	-0.17263202
64	0xbdb5479b	-0.08851548
65	0xbdd05a87	-0.10173517
66	0xbdb829c5	-0.08992342
67	0x3d91b4fd	0.07114599
68	0xbdf903b6	-0.12158911
69	0x3df12ee5	0.117765225
70	0x3c45d355	0.012074311
71	0xbdc0217c	-0.09381387
72	0x3c4c2e03	0.012462142
73	0x3e635b42	0.22202781
74	0xbdfe737b	-0.1242437
75	0x3dee7064	0.116425306
76	0xbdf1f513	-0.11814322
77	0x3db825ad	0.08991561
78	0xbe4c24ca	-0.19935909
79	0xbd56d2d1	-0.052447144
80	0xbba6837e	-0.005081593
81	0x3dec8195	0.11548153
82	0x3deeb652	0.116558686
83	0x3d081819	0.033226106
84	0xbdc790e1	-0.0974443
85	0xbe3fc70d	-0.18728276
86	0xbe8b0bf1	-0.27157548
87	0xbdf7aba9	-0.120932885
88	0xbce3207c	-0.02772545
89	0x3e4b3050	0.19842649
90	0xbd064283	-0.032778274
91	0x3b754967	0.0037427784
92	0xbceb1099	-0.028694438
93	0x3cff1037	0.031135662
94	0xbc19eb0a	-0.009394417
95	0xbdebb2f6	-0.115087435
96	0xbd4b77b6	-0.049674712
97	0xbb30f606	-0.002700211
98	0x3d149bab	0.03628127
99	0xbddd9bd8	-0.108207405
100	0xbd3404c8	-0.043949872
101	0xbdbc049d	-0.091805674
102	0x3d9c207d	0.07623384
103	0x3db69dcf	0.08916818
104	0x3d4d927e	0.050188534
105	0xbc6fcc46	-0.014636105
106	0x3d401db3	0.046903323
107	0x3e0b0bac	0.13578671
108	0xbda38993	-0.079852246
109	0x3d6048df	0.054756995
110	0xbc975aae	-0.018475857
111	0x3e64a8fb	0.22330086
112	0x3d6ad3bf	0.057330843
113	0x3d9ba4f2	0.0759982
114	0x3d8b0563	0.06788137
115	0xbddfaa96	-0.109212086
116	0x3cf64ffa	0.030067433
117	0xbe3c66c9	-0.18398584
118	0xbd00c033	-0.031433295
119	0x3d04f928	0.032464176
120	0x3d06abc9	0.03287867
121	0x3c77516f	0.015095099
122	0x3e48e533	0.19618683
123	0x3ccc066f	0.024905412
124	0x3d2ca139	0.04214594
125	0xbb4fdb03	-0.0031716235
126	0xbda61ee2	-0.08111359
127	0xbe5c25da	-0.21498814
128	0xbca33059	-0.019920515
129	0x3dfbcbf8	0.12294763
130	0x3d55417d	0.052064408
131	0x3caa90aa	0.020820934
132	0x3e927a8e	0.28609127
133	0xbdd1c3fa	-0.10242458
134	0x3ddb4cbf	0.107079975
135	0x3da738af	0.081651084
136	0x3de1cd0c	0.11025438
137	0x3d34b644	0.044119135
138	0xbe6ae28e	-0.22937986
139	0x3ba5f0f5	0.0050641247
140	0xbcddb670	-0.027064532
141	0x3dcae9bc	0.099078625
142	0x3dd99cb4	0.10625592
143	0xbdd35f02	-0.10320856
144	0x3df3bda5	0.11901406
145	0xbe03e341	-0.12879659
146	0x3d690d11	0.056897227
147	0xbcb89f04	-0.022536762
148	0x3c78f6af	0.015195533
149	0x3dbbc4e6	0.09168415
150	0xbdd5d5b7	-0.104411535
151	0x3c902f32	0.01760063
152	0x3d39f486	0.04539921
153	0xbe1033c9	-0.14082254
154	0xbdef8433	-0.11695137
155	0x3d0be191	0.034150664
156	0x3da56823	0.08076503
157	0x3d02d2a8	0.03193918
158	0x3cd75b5f	0.026288686
159	0xbd984efb	-0.07436939
160	0xbdaa3de3	-0.08312585
161	0xbd9b83e0	-0.075935125
162	0x3e05311f	0.1300702
163	0xbe0df169	-0.13861622
164	0x3de4532a	0.11148675
165	0xbd37f30b	-0.04490952
166	0x3dc7cb80	0.097556114
167	0x3b03d687	0.0020116882
168	0xbdff7ee3	-0.124753736
169	0xbe4ae4b2	-0.19813803
170	0xbd2b43f3	-0.04181285
171	0x3d4255c0	0.04744506
172	0x3e144eb5	0.1448315
173	0x3e122f47	0.14275847
174	0xbb49d331	-0.0030796046
175	0xbdbeab3f	-0.09310006
176	0x3d10dcb9	0.035366748
177	0xbd831a23	-0.064014696
178	0xbd93d83f	-0.0721898
179	0x3e963c8e	0.29343075
180	0xbca55fdb	-0.020187309
181	0xbc8d2181	-0.01722789
182	0xbcc7d506	-0.02439357
183	0x3d536e62	0.05161894
184	0x3e7465ff	0.23867033
185	0xbcaad88f	-0.020855216
186	0xbd82a4b7	-0.06379073
187	0xbe0074bc	-0.1254453
188	0x3d94d6c4	0.07267526
189	0x3e14b15d	0.14520784
190	0x3e1548b7	0.1457852
191	0xbe0f8ba2	-0.1401811

net.1.running_var f4 [192]
0	0x3e7b9ac3	0.24570756
1	0x3e147f22	0.14501622
2	0x3f55606b	0.8335025
3	0x3f0f40e3	0.55958384
4	0x3f4b1623	0.7933065
5	0x3e375881	0.17904855
6	0x3ef4f6c2	0.4784451
7	0x3e1dbdbf	0.15404414
8	0x3d882d43	0.06649258
9	0x3ed38c25	0.4131786
10	0x3db728a0	0.089432955
11	0x3ea91e18	0.33030772
12	0x3f357111	0.7087565
13	0x3f30b03a	0.690189
14	0x3ec0dc4f	0.37668082
15	0x3db65f59	0.08904905
16	0x3e8760ba	0.26440984
17	0x3eca9006	0.39563006
18	0x3da409a5	0.08009652
19	0x3e8e1eba	0.27757818
20	0x3e68d3f6	0.22737107
21	0x3ee05792	0.4381681
22	0x3ebf393f	0.37348363
23	0x3e1b17b4	0.15145761
24	0x3f0f2cc5	0.5592769
25	0x3ccd36ee	0.025050607
26	0x3e8912c5	0.26772133
27	0x3e01c6d4	0.12673503
28	0x3e8934b7	0.2679803
29	0x3dd8ed17	0.10592096
30	0x3def1b44	0.116751224
31	0x3f39427c	0.7236707
32	0x3e523808	0.20529187
33	0x3e95058c	0.29105794
34	0x3e8e3d25	0.27781025
35	0x3e0e1404	0.13874823
36	0x3e872e29	0.26402405
37	0x3ea3e31f	0.32009217
38	0x3dbfc177	0.09363072
39	0x3e06dd0a	0.13170257
40	0x3debe340	0.11517954
41	0x3e9060da	0.28198892
42	0x3e8424eb	0.25809416
43	0x3f618c59	0.8810478
44	0x3ec55113	0.38538417
45	0x3ef91c31	0.4865432
46	0x3f1b762b	0.60727185
47	0x3ed82fb6	0.422239
48	0x3f6f5a0c	0.93496776
49	0x3e1913f9	0.14949025
50	0x3e0d0721	0.1377225
51	0x3f22cd1a	0.6359421
52	0x3e708511	0.23488261
53	0x3f5faaba	0.87369883
54	0x3e190826	0.14944515
55	0x3ea42054	0.32055914
56	0x3e30bd60	0.17259741
57	0x3eb3e16e	0.35132927
58	0x3e7c819a	0.24658814
59	0x3dcb7c76	0.099358484
60	0x3f0bbad4	0.5458195
61	0x3e696957	0.2279409
62	0x3e6dae8a	0.23211113
63	0x3e214584	0.15749174
64	0x3e3dc313	0.18531446
65	0x3eaf3648	0.342211
66	0x3e67ae1b	0.2262501
67	0x3f2ebf25	0.68260413
68	0x3f82d0b8	1.0219946
69	0x3f1d5433	0.614566
70	0x3e7d8fb9	0.24761857
71	0x3f0263db	0.5093362
72	0x3ee0d384	0.43911374
73	0x3e06eb01	0.13175584
74	0x3ed95d68	0.42454076
75	0x3e50acc0	0.20378399
76	0x3e34c530	0.17653346
77	0x3d3e7757	0.04650053
78	0x3e0ca312	0.13734081
79	0x3f746b03	0.95475787
80	0x3f04bff0	0.51855373
81	0x3e768a2f	0.2407615
82	0x3ee98ba6	0.45614356
83	0x3edee92f	0.4353728
84	0x3f2fbf56	0.6865133
85	0x3eb3ed04	0.35141766
86	0x3ee64607	0.44975302
87	0x3df0c6f4	0.11756697
88	0x3ebf9939	0.37421587
89	0x3dd8b5cf	0.10581552
90	0x3e151436	0.14558491
91	0x3f007292	0.5017482
92	0x3e8e6e0c	0.27818334
93	0x3f31e1c7	0.69485134
94	0x3d80c666	0.062878415
95	0x3eb3d50e	0.35123485
96	0x3e80fcd3	0.2519289
97	0x3e26c297	0.16285168
98	0x3e54841c	0.2075352
99	0x3ed5a180	0.41724777
100	0x3e325642	0.17415717
101	0x3f6889a8	0.90835047
102	0x3e2103c6	0.15724096
103	0x3e46f644	0.1942988
104	0x3f2ee0c1	0.683117
105	0x3e9fbc10	0.31198168
106	0x3efaa016	0.4895026
107	0x3e3b408d	0.18286343
108	0x3e132d5c	0.14372772
109	0x3e856825	0.26056018
110	0x3ec6eb6a	0.38851482
111	0x3e1d4955	0.15360005
112	0x3eb88f6e	0.36046928
113	0x3e5e81b8	0.21729171
114	0x3dc11a9e	0.09428905
115	0x3f11d941	0.5697213
116	0x3f1dfe59	0.6171623
117	0x3e3ebf30	0.1862762
118	0x3e6aef16	0.22942767
119	0x3f461775	0.7737954
120	0x3e927dfb	0.2861174
121	0x3e686590	0.22694993
122	0x3f1c2d73	0.6100685
123	0x3e994229	0.2993329
124	0x3e425b95	0.18980248
125	0x3e1c64d7	0.15272842
126	0x3e084b15	0.13309892
127	0x3de67d43	0.112543605
128	0x3e0826bf	0.1329603
129	0x3e187819	0.14889564
130	0x3e51126a	0.2041718
131	0x3e913ed6	0.28368253
132	0x3f10a451	0.56500727
133	0x3e71c634	0.23610765
134	0x3e4cef68	0.20013201
135	0x3ddca0b9	0.10772843
136	0x3e532d30	0.20622706
137	0x3f2aa677	0.66660255
138	0x3f859a90	1.0437794
139	0x3e450cbf	0.19243143
140	0x3dac8948	0.08424622
141	0x3e356a35	0.17716296
142	0x3ec00100	0.37500763
143	0x3e5584ae	0.20851395
144	0x3e216528	0.15761244
145	0x3f0ced71	0.55049807
146	0x3f34ed0a	0.7067419
147	0x3dca2509	0.09870345
148	0x3ef5d657	0.4801509
149	0x3ec904b9	0.39261416
150	0x3f60277c	0.8756025
151	0x3e32103b	0.17389004
152	0x3e5bb78d	0.21456738
153	0x3f4c7b2d	0.7987545
154	0x3f801e86	1.0009315
155	0x3eaeecb9	0.3416498
156	0x3ed1b58c	0.40958822
157	0x3f293b38	0.66105986
158	0x3e168d53	0.14702348
159	0x3e7b6ef6	0.24554047
160	0x3e67725d	0.2260222
161	0x3e8265c7	0.25468275
162	0x3f197469	0.5994325
163	0x3db4adb4	0.08822194
164	0x3f0ca45b	0.54938287
165	0x3dea2a73	0.11433878
166	0x3f189af6	0.5961145
167	0x3eb3f114	0.35144866
168	0x3f1353d1	0.5754977
169	0x3ec0b2d2	0.3763643
170	0x3f0c9d7e	0.54927814
171	0x3f519038	0.81860685
172	0x3eebfafe	0.4608993
173	0x3ec4666a	0.38359386
174	0x3db6a79c	0.08918688
175	0x3e58525d	0.21125169
176	0x3e695fc9	0.22790445
177	0x3e29a648	0.16567338
178	0x3ea74f60	0.32677746
179	0x3ee8f5b0	0.45499945
180	0x3db33f69	0.08752329
181	0x3f2ec93a	0.682758
182	0x3d90bb5a	0.070669845
183	0x3eb264e8	0.3484261
184	0x3f0ba20d	0.54544145
185	0x3e3d58d9	0.18490924
186	0x3e20146f	0.15632795
187	0x3f2ef82a	0.6834742
188	0x3de65032	0.11245765
189	0x3dd43b23	0.10362842
190	0x3e1b26d6	0.15151533
191	0x3ec34f1f	0.38146302

net.4.weight f4 [192, 192]
0	0xbc887069	-0.016655164
1	0x3c7e96fa	0.015538925
2	0x3db0c2c1	0.08630896
3	0x3df5a861	0.11995006
4	0xbe3b5c14	-0.18296844
5	0xbd7e3eb9	-0.062071536
6	0xbdaccdad	-0.08437667
7	0x3d08c3e7	0.033389952
8	0xbb1b2f80	-0.0023679435
9	0x3d805994	0.06267086
10	0x3ce33a7d	0.02773785
11	0xbd91b96f	-0.07115447
12	0x3b6a3738	0.003573848
13	0xbdb55217	-0.08853548
14	0xbd75c020	-0.059997678
15	0x3d887d60	0.066645384
16	0xbc9d4647	-0.01919855
17	0xbdeedbb1	-0.116629966
18	0xbe0f2c11	-0.13981654
19	0xbd8e9dd5	-0.06963698
20	0xbe07f39c	-0.13276523
21	0xbd90a8ec	-0.07063469
22	0xbd888ad7	-0.066671066
23	0xbc7c60d9	-0.01540395
24	0x3d9f6422	0.07782771
25	0xbd9d0079	-0.07666106
26	0x3c1defbb	0.009639676
27	0xbca2395a	-0.019802738
28	0xbcf66980	-0.030079603
29	0x3bcf0bfe	0.0063185683
30	0xbe285450	-0.16438413
31	0x3d547a61	0.051874522
32	0x3d4dc48e	0.050236277
33	0xbc8bbc92	-0.01705769
34	0xbded89df	-0.115985624
35	0xb916635b	-0.00014342128
36	0x3d682f3a	0.056685664
37	0xbd3ba0c6	-0.045807622
38	0x3bfd3f2b	0.0077284775
39	0x3d328f07	0.043593433
40	0xbdce5eea	-0.10076697
41	0xbd713e7f	-0.05889749
42	0x3de57161	0.11203266
43	0x3e07b18f	0.13251327
44	0xbda9a971	-0.082842715
45	0xbc2a70ba	-0.010402853
46	0xbd056865	-0.03257026
47	0xbd6bd09a	-0.057571985
48	0xbe0c1968	-0.13681567
49	0xbd408844	-0.047004953
50	0xbdcfbd6f	-0.101435535
51	0x3cb2c8a6	0.021824192
52	0xbe0776d0	-0.13228917
53	0x3d9b6843	0.07588246
54	0xbc559a61	-0.013037295
55	0xbcc88117	-0.024475617
56	0xbc35f6ee	-0.011106236
57	0xbd815726	-0.0631545
58	0xbd3cf8b8	-0.046135634
59	0x3ca2822a	0.019837458
60	0xbc570fa7	-0.01312629
61	0x3d9dc495	0.07703511
62	0xbd6318f1	-0.055443708
63	0xbd885937	-0.066576414
64	0x3da422b0	0.080144286
65	0x3e03e004	0.12878424
66	0x3d8ab107	0.067720465
67	0x3de6a17c	0.112612695
68	0x3d4785be	0.04871153
69	0xbd0fec03	-0.035137188
70	0x3da24218	0.07922763
71	0xbdae7764	-0.08518866
72	0xbd95c4a4	-0.07312897
73	0xbc31b8cc	-0.010847282
74	0xbda94914	-0.08265892
75	0xbd892ecd	-0.0669838
76	0x3d65cb8e	0.056102328
77	0xbd70b94d	-0.058770467
78	0x3deda4ef	0.11603724
79	0x3d2d76a6	0.04234948
80	0xba20a0d9	-0.0006127484
81	0x3cf1991a	0.02949195
82	0x3b4bc736	0.003109408
83	0x3d9d0469	0.07666857
84	0x3da73ac7	0.08165508
85	0x3cf9cb2d	0.03049239
86	0x3bb1d4a0	0.005426958
87	0xbd82b009	-0.06381232
88	0x3d1142e3	0.03546418
89	0xbd3f277b	-0.04666851
90	0xbd71bd9c	-0.059018716
91	0xbc488ac9	-0.01224012
92	0xbdae3cd2	-0.08507694
93	0x3d21a9c6	0.03946855
94	0x3a429ef0	0.0007424196
95	0x3dae5878	0.08512968
96	0xbceed68f	-0.029155044
97	0x3d287c87	0.041134384
98	0xbdaef055	-0.085419334
99	0xbd3940ca	-0.045227803
100	0x3d8fe264	0.070256025
101	0x3d14b25d	0.036302913
102	0xbd9f417b	-0.07776161
103	0xbcb766f7	-0.022387965
104	0x3cdff84c	0.027340077
105	0x3d76f42a	0.060291447
106	0x3c905f04	0.017623432
107	0xbe1ef97a	-0.15524855
108	0xbca7642a	-0.020433504
109	0xbd70cb47	-0.05878761
110	0x3d463c23	0.048397195
111	0xbddc1494	-0.107461125
112	0x3d6c2f70	0.057662427
113	0xbd277999	-0.04088745
114	0xbde82607	-0.11335378
115	0x3df29f81	0.11846829
116	0xbd4445fa	-0.047918297
117	0xbd98e67f	-0.07465839
118	0xbe15ddb5	-0.14635356
119	0x3d154b81	0.03644896
120	0xbd309bf2	-0.04311747
121	0x3a63cb2c	0.0008689638
122	0x3da5258a	0.08063801
123	0x3e051629	0.12996735
124	0x3c9c8028	0.019104078
125	0xbd967aa8	-0.073476136
126	0xbda06116	-0.07831018
127	0xbc4672f1	-0.012112365
128	0xbd887047	-0.0666204
129	0x3d5ee91f	0.05442154
130	0x3c2fe4f4	0.010735739
131	0x3da6e129	0.08148415
132	0x3d0305a2	0.031987794
133	0xbc9cf015	-0.019157449
134	0xbd3b3163	-0.045701396
135	0xbd8877a8	-0.066634476
136	0x3c65b66a	0.014020542
137	0x3e2a6ab9	0.16642274
138	0xbdd30121	-0.1030295
139	0xbe0d2820	-0.13784838
140	0xbdba3932	-0.090929404
141	0xbc8f11f9	-0.017464625
142	0x3c066f8d	0.008205307
143	0xbdc49e58	-0.09600514
144	0x3bc403c0	0.0059818923
145	0x3d946fb7	0.072478704
146	0xbe989ed7	-0.29808685
147	0xbcac16b4	-0.02100692
148	0xbd9a7d89	-0.07543475
149	0x3d1b00a8	0.037842423
150	0x3c83072f	0.015994636
151	0x3cbbd48e	0.022928502
152	0x3d37cc74	0.044872716
153	0x3e309d2b	0.17247455
154	0xbe2922b4	-0.16517144
155	0x3ccd1bc2	0.02503765
156	0x3dc4d640	0.096111774
157	0x3cbaf06f	0.022819726
158	0xbbe3d1fc	-0.0069525223
159	0xbd23bd4c	-0.03997545
160	0xbc972ad0	-0.018453032
161	0x3cb457f3	0.022014594
162	0x3deeb5f5	0.11655799
163	0xbb0d6159	-0.0021572916
164	0x3e19b927	0.15012036
165	0x3d95f6df	0.073224775
166	0x3c07e4fe	0.008294342
167	0x3e0c4d4a	0.13701358
168	0xbdb74225	-0.08948163
169	0xbe58f144	-0.21185786
170	0xbcdf0224	-0.0272227
171	0xbec464af	-0.38358065
172	0xbc4b9e85	-0.012427931
173	0xbd87c5a9	-0.066294976
174	0x3aff3f5b	0.0019473837
175	0xbb0b8413	-0.002128844
176	0xbc2beb66	-0.010493135
177	0xbdb5cf6c	-0.08877453
178	0xbe1bee34	-0.15227586
179	0xbd7ed5ee	-0.062215738
180	0xbba590dd	-0.0050526694
181	0xbdf39bd5	-0.11894957
182	0xbc8a4b92	-0.016881738
183	0x3d5a2180	0.053254604
184	0xbd8cee99	-0.068814464
185	0xbd8313bb	-0.06400248
186	0xbd4f2acd	-0.050577927
187	0x3d1e7bc1	0.03869224
188	0xbdbd498a	-0.09242542
189	0xbd94fe41	-0.072750576
190	0xbd8ed2dd	-0.06973813
191	0xbb2cfbf4	-0.0026395293
192	0x3d28a4b7	0.04117271
193	0x3dab2af6	0.083578035
194	0x3d6c7636	0.057729922
195	0x3dd481fa	0.103763536
196	0xbd2f63db	-0.04281984
197	0xbdfe2e70	-0.12411201
198	0xbcdcf9c5	-0.026974568
199	0x3d3ffeaa	0.046873726
200	0xbd9cb6fa	-0.076520875
201	0xbd2da537	-0.04239389
202	0xbc3c2a3d	-0.01148468
203	0x3e133fd6	0.1437982
204	0xbd23db7e	-0.040004246
205	0xbe68a7f1	-0.22720315
206	0x3d185ff6	0.03720089
207	0xbe264f6a	-0.16241232
208	0x3e05cc47	0.13066207
209	0xbd7d3729	-0.061820183
210	0x3d5f5a08	0.05452922
211	0xbd7a145e	-0.06105458
212	0x3c1d497c	0.00960004
213	0x3c07a435	0.008278896
214	0x3dc5391f	0.096300356
215	0xbd5beec1	-0.05369449
216	0xbe3571ad	-0.17719145
217	0x3d02bb29	0.03191677
218	0x3d96f0ec	0.07370171
219	0x3ca17927	0.01971109
220	0x3cd3b698	0.025843903
221	0xbd995f42	-0.07488872
222	0x3cfa7900	0.030575275
223	0xbd132707	-0.03592589
224	0x3dd87d49	0.10570771
225	0xbc8d4c18	-0.017248198
226	0x3d83b86f	0.06431662
227	0xbc8644b4	-0.016390182
228	0x3e3dbd77	0.18529306
229	0xbd972f49	-0.07382066
230	0xbe35a89e	-0.17740104
231	0x3d61bb1e	0.05511009
232	0xbda638f2	-0.0811633
233	0x3d682627	0.05667701
234	0x3d1ce98e	0.038308673
235	0x3e39bc32	0.18138197
236	0xbd103fbc	-0.03521703
237	0xbd81576c	-0.063155025
238	0xbe11202b	-0.14172427
239	0x3d6a444a	0.05719403
240	0xbc360915	-0.011110564
241	0xbcb3e4bd	-0.021959657
242	0x3d9339ce	0.0718876
243	0x3de380af	0.11108529
244	0xbbb30a7b	-0.005463896
245	0xbbc5d220	-0.0060370117
246	0xbd5143a1	-0.051089887
247	0x3d2d0e78	0.042250127
248	0xbdb03537	-0.086039
249	0x3d0c39f6	0.034234963
250	0x3cbeb907	0.023281587
251	0x3e236f84	0.15960509
252	0xbad99366	-0.0016599714
253	0xbe07a6b4	-0.13247186
254	0xbcc3bad1	-0.023892792
255	0xbe03f9aa	-0.12888208

net.4.bias f4 [192]
0	0xbd5c35f3	-0.053762387
1	0xbcb18907	-0.021671785
2	0xba9c275a	-0.0011913583
3	0xbcd8c234	-0.02645979
4	0xbc890ece	-0.016730692
5	0xbd00d8a2	-0.031456597
6	0x3cb1a1cc	0.021683596
7	0xbd84ba94	-0.064808995
8	0x3b93ccd5	0.004510502
9	0x3c999ea2	0.0187524
10	0x3d585631	0.052816574
11	0x3c978436	0.01849566
12	0x3c0349bc	0.008013185
13	0xbcbca48a	-0.023027677
14	0xbd8d622c	-0.069034904
15	0xbd029ddc	-0.031888828
16	0x3c3826e8	0.011239745
17	0x3c409c81	0.011756063
18	0xbd6eafd0	-0.058273137
19	0x3b1b33bc	0.002368196
20	0x3ba4ff5f	0.0050353254
21	0x3d1c0c8a	0.038097896
22	0x3d3d81da	0.046266414
23	0x3babe879	0.0052462188
24	0xbc53a12a	-0.0129168425
25	0x3d3fc600	0.046819687
26	0x3d252c09	0.0403252
27	0xbd5c419d	-0.05377351
28	0x3d71a0e4	0.058991328
29	0xbbbc69d9	-0.0057499227
30	0x3d88267f	0.066479675
31	0x3d43cc35	0.04780217
32	0xbd5a7ec0	-0.053343534
33	0x3d692faf	0.05693024
34	0xbd8de2a7	-0.06927996
35	0x3d5637e1	0.052299384
36	0xbd3e132d	-0.046405006
37	0xba18f928	-0.0005835467
38	0x3d11d5bd	0.035604227
39	0x3d506fa7	0.05088773
40	0x3c9ecd0f	0.019384889
41	0xbc3d0d77	-0.011538855
42	0xbd661727	-0.056174424
43	0x3d931119	0.071809955
44	0x3d54a611	0.051916186
45	0xbd4c89ff	-0.04993629
46	0xbcc36ca0	-0.023855507
47	0xbd7aacc1	-0.061199907
48	0x3d0e7647	0.034780767
49	0xbd83f405	-0.064430274
50	0xbd6c39b8	-0.057672232
51	0xbd026cb5	-0.031841952
52	0x3d23bea0	0.039976716
53	0xbd8a435a	-0.067511275
54	0x3cdcd845	0.026958594
55	0xbd92bbc4	-0.0716472
56	0x3ba0ef08	0.0049113072
57	0x3c1d4903	0.009599927
58	0xbd4a0b9f	-0.04932749
59	0x3a9827b8	0.0011608517
60	0x3d79215a	0.060822822
61	0xbd651973	-0.055932473
62	0xbceb9192	-0.028755937
63	0xbbfd3cbb	-0.007728187
64	0xbd3958dc	-0.04525076
65	0x3d17e57c	0.037084088
66	0xbd353e29	-0.044248734
67	0x3d523c4d	0.05132704
68	0x3bf69b9d	0.007525875
69	0xbc2b6770	-0.010461673
70	0xbd4cc9fc	-0.049997315
71	0x3be55489	0.0069986028
72	0x3d19f391	0.0375858
73	0x3d73e6b1	0.059546176
74	0xbd413b20	-0.047175527
75	0x3c808ac2	0.015691165
76	0xbd53bb17	-0.051692095
77	0xbd576767	-0.052588847
78	0x3bc1199e	0.0058929464
79	0xbd4061b2	-0.04696817
80	0x3d1cd403	0.038288128
81	0x3d36c361	0.04461992
82	0xb9e5ef28	-0.0004385647
83	0xbbe45947	-0.0069686505
84	0xbcd150ab	-0.02555116
85	0x3cbf4b72	0.023351405
86	0x3d88ecf9	0.06685824
87	0xbd85f73f	-0.06541299
88	0x3cfd8739	0.030948268
89	0x3d87dd2a	0.066339806
90	0x3d8c6ea5	0.06857041
91	0xbd487382	-0.04893828
92	0xbbabb385	-0.0052399063
93	0xbc3f181c	-0.011663463
94	0x3d71161d	0.05885898
95	0xbd29c16e	-0.041444235
96	0xbd82f70c	-0.06394777
97	0xbcbcce5a	-0.023047615
98	0x3d1d4d34	0.038403705
99	0x3d89b6e7	0.06724339
100	0xbd3d8ec9	-0.04627875
101	0xbd5ebf99	-0.05438194
102	0x3d917e2a	0.07104142
103	0x3d3f6ede	0.04673659
104	0x3cdf7db8	0.027281627
105	0xbb9e057c	-0.004822431
106	0xbd937be7	-0.07201367
107	0x3cef953c	0.029245965
108	0xbd87dddc	-0.06634113
109	0xbd17ec3b	-0.03709052
110	0xbd798fc7	-0.060928132
111	0x3d5332e7	0.051562216
112	0x3d874504	0.066049606
113	0x3d1304c7	0.035893228
114	0x3d57ebaa	0.05271498
115	0x3c72ecd9	0.014826977
116	0x3cdb7214	0.026787795
117	0x3bc8fae2	0.006133423
118	0x3c81e669	0.015856938
119	0x3d909f83	0.070616744
120	0x3c28298d	0.010263813
121	0xbd039e25	-0.03213324
122	0xbc8c5dd9	-0.017134594
123	0x3d8984a4	0.06714752
124	0x3cd985cc	0.026553057
125	0xbd1387c2	-0.03601814
126	0xbd849467	-0.06473618
127	0x3ca7150b	0.020395776
128	0xbd142d0e	-0.03617578
129	0x3d5619cc	0.052270696
130	0xbc41ca46	-0.011828011
131	0xbc49ca3e	-0.012316285
132	0x3d2c25f6	0.04202839
133	0xbd8f287a	-0.06990142
134	0xbceb6c8c	-0.028738283
135	0x3d8093f7	0.06278222
136	0x3b5dd15d	0.0033846714
137	0xbd0bd03e	-0.034134142
138	0xbc9fc652	-0.019503746
139	0xbd3f4acf	-0.046702202
140	0xbd8aed7c	-0.06783578
141	0xbd7eac87	-0.062176254
142	0x3b593e63	0.0033148758
143	0x3d37584a	0.044761933
144	0xbd87d411	-0.06632245
145	0x3caffd96	0.021483224
146	0x3c818d58	0.015814468
147	0xbd22aebd	-0.039717425
148	0xbc8211c1	-0.015877606
149	0xbd62a0e8	-0.055329233
150	0xbd8dd13d	-0.06924675
151	0x3d055323	0.03254999
152	0xb9cc956d	-0.00039021243
153	0x3d3cdb25	0.04610743
154	0xbb9c0cf4	-0.0047622863
155	0xbd30ab0a	-0.043131866
156	0xbd807519	-0.062723346
157	0xbd8c7818	-0.068588436
158	0xbd694343	-0.05694891
159	0xbc795ae0	-0.01521942
160	0x3aba758a	0.0014225703
161	0xbd4faa7d	-0.0506997
162	0xbd243354	-0.040088013
163	0x3d56451d	0.052312005
164	0x3cdcfeec	0.026977025
165	0x39910cad	0.00027666
166	0x3bf101ad	0.007354936
167	0x3d397a16	0.045282446
168	0xbd5c4e77	-0.053785767
169	0xbd87dcee	-0.06633936
170	0x3d457ba8	0.04821363
171	0x3c3e48cc	0.011614036
172	0x3d76b02c	0.060226604
173	0xbb1d2447	-0.0023977922
174	0xbd91f886	-0.0712748
175	0xbd43c55c	-0.04779564
176	0x3c7c8244	0.015411917
177	0xbd06ed9c	-0.032941446
178	0xbc71f6a6	-0.014768278
179	0x3d278ee9	0.040907774
180	0xbd6ac908	-0.057320625
181	0xbcc9dea1	-0.02464229
182	0xbc578e82	-0.013156535
183	0x3d006568	0.03134671
184	0x3d22330d	0.039599467
185	0xbd143cef	-0.036190923
186	0xbd0d85ae	-0.034551315
187	0xbb7caadf	-0.0038553996
188	0xbcda683f	-0.026661037
189	0xbc9e7509	-0.019342916
190	0xbcd970f2	-0.026543114
191	0xbc9f64d7	-0.019457264

net.5.weight f4 [192]
0	0x3f974b81	1.1819917
1	0x3f86cd89	1.0531474
2	0x3f7b8f5e	0.98265636
3	0x3f8938e2	1.0720484
4	0x3f807bf5	1.0037829
5	0x3f83410c	1.0254226
6	0x3f777bc0	0.966732
7	0x3f8955c8	1.0729303
8	0x3f80fbca	1.007684
9	0x3f7ad3c6	0.9797939
10	0x3f80d33a	1.0064461
11	0x3f70d9fc	0.9408262
12	0x3f899f93	1.0751823
13	0x3f7952bf	0.97391886
14	0x3f6db671	0.9285651
15	0x3f813cbe	1.0096662
16	0x3f8585e0	1.043148
17	0x3f772da2	0.96554005
18	0x3f8347c4	1.0256276
19	0x3f6f6788	0.9351735
20	0x3f842c74	1.0326066
21	0x3f6f1271	0.93387514
22	0x3f7e3abc	0.9930837
23	0x3f616ae6	0.8805374
24	0x3f7fd875	0.9993966
25	0x3f7dbeef	0.99119467
26	0x3f806a99	1.0032531
27	0x3f6b1c1c	0.91839767
28	0x3f836be1	1.0267297
29	0x3f7e21d1	0.9927035
30	0x3f85152d	1.0397087
31	0x3f804500	1.0021057
32	0x3f6ca27d	0.9243544
33	0x3f67cf4d	0.9055069
34	0x3f81db48	1.0145044
35	0x3f8f098e	1.1174791
36	0x3f6926b7	0.910747
37	0x3f8d7105	1.1050116
38	0x3f804386	1.0020607
39	0x3f864c05	1.0491949
40	0x3f853e69	1.0409671
41	0x3f859b29	1.0437976
42	0x3f80b888	1.0056314
43	0x3f75e397	0.960504
44	0x3f79aa6d	0.97525674
45	0x3f751fe5	0.9575179
46	0x3f7f7f80	0.99803925
47	0x3f7c91c3	0.98659915
48	0x3f81d99c	1.0144534
49	0x3f7b8691	0.9825221
50	0x3f8e3fa8	1.1113176
51	0x3f6e4b2e	0.93083465
52	0x3f6da940	0.9283638
53	0x3f81480e	1.0100114
54	0x3f7dcc35	0.9913972
55	0x3f76261c	0.961519
56	0x3f75e53d	0.96052915
57	0x3f71d2dd	0.94462377
58	0x3f8a4cb0	1.0804653
59	0x3f7e5c4d	0.9935959
60	0x3f73a978	0.95180464
61	0x3f710951	0.9415484
62	0x3f7caed3	0.9870426
63	0x3f709872	0.93982613
64	0x3f6c499d	0.92299825
65	0x3f7c7456	0.98615015
66	0x3f72a760	0.94786644
67	0x3f8e8d47	1.1136864
68	0x3f83a73a	1.0285408
69	0x3f7a6a99	0.97818905
70	0x3f8164d9	1.0108901
71	0x3f7ccd48	0.98750734
72	0x3f5f7aa0	0.87296486
73	0x3f8137ce	1.0095155
74	0x3f6d8ac6	0.92789876
75	0x3f87cac9	1.060876
76	0x3f62060f	0.88290495
77	0x3f833f41	1.0253679
78	0x3f86d243	1.0532917
79	0x3f7d5392	0.98955643
80	0x3f700b51	0.9376727
81	0x3f73232e	0.94975555
82	0x3f84cdd5	1.0375315
83	0x3f7578f0	0.9588766
84	0x3f68f0f1	0.9099265
85	0x3f6e20a6	0.9301857
86	0x3f815cfa	1.0106499
87	0x3f6c33d5	0.9226659
88	0x3f843f27	1.0331773
89	0x3f729926	0.94764936
90	0x3f74d81d	0.9564226
91	0x3f602045	0.8754924
92	0x3f5e48bf	0.8682975
93	0x3f7e8c41	0.9943276
94	0x3f7beded	0.9840992
95	0x3f83a0c2	1.0283434
96	0x3f84f8f7	1.0388478
97	0x3f779837	0.96716636
98	0x3f770b48	0.9650159
99	0x3f706327	0.93901294
100	0x3f72a68f	0.947854
101	0x3f7987b6	0.97472703
102	0x3f6f0acc	0.9337585
103	0x3f7b85fe	0.9825133
104	0x3f860110	1.0469074
105	0x3f615375	0.8801797
106	0x3f7264b2	0.946849
107	0x3f76000f	0.9609384
108	0x3f60c48d	0.8779991
109	0x3f671fbd	0.90282804
110	0x3f6ade12	0.917451
111	0x3f7e0122	0.9922048
112	0x3f73614e	0.9507035
113	0x3f81c59d	1.0138432
114	0x3f805169	1.0024844
115	0x3f88111f	1.0630225
116	0x3f85a19b	1.0439943
117	0x3f70c770	0.9405432
118	0x3f7cbda4	0.9872687
119	0x3f7eac4a	0.9948164
120	0x3f6bb067	0.92066044
121	0x3f8dd87e	1.1081693
122	0x3f83b197	1.0288571
123	0x3f7c002e	0.98437774
124	0x3f801def	1.0009135
125	0x3f729a2f	0.94766515
126	0x3f66cd07	0.90156597
127	0x3f7f156c	0.9964206
128	0x3f833d7a	1.0253136
129	0x3f69e9d2	0.91372406
130	0x3f88e188	1.0693827
131	0x3f7afe63	0.98044413
132	0x3f7b266e	0.98105514
133	0x3f77aed0	0.9675112
134	0x3f88ea27	1.0696458
135	0x3f842d57	1.0326337
136	0x3f8c4480	1.0958405
137	0x3f747c98	0.95502615
138	0x3f81d58a	1.0143292
139	0x3f8929e8	1.0715914
140	0x3f78974a	0.9710585
141	0x3f747180	0.9548569
142	0x3f857351	1.0425817
143	0x3f7d13b0	0.98858166
144	0x3f77acb8	0.9674792
145	0x3f6db351	0.9285174
146	0x3f75b283	0.9597551
147	0x3f70cd25	0.94063026
148	0x3f746d9b	0.95479745
149	0x3f80d2eb	1.0064367
150	0x3f6bfaa0	0.921793
151	0x3f69fc97	0.91401047
152	0x3f864f8f	1.0493029
153	0x3f7ea00c	0.9946296
154	0x3f744562	0.9541837
155	0x3f73ee2a	0.95285285
156	0x3f75d30b	0.9602515
157	0x3f7b8811	0.98254496
158	0x3f7f4e9f	0.9972934
159	0x3f6e6454	0.9312184
160	0x3f85a43f	1.0440749
161	0x3f8396df	1.0280417
162	0x3f710ac4	0.9415705
163	0x3f8557d0	1.0417423
164	0x3f7bc7fc	0.98352027
165	0x3f7ca7f9	0.98693806
166	0x3f7df885	0.99207336
167	0x3f7e5ec3	0.99363345
168	0x3f71dcad	0.9447735
169	0x3f715f1b	0.94285744
170	0x3f708aca	0.93961775
171	0x3f76039c	0.9609926
172	0x3f853c6c	1.0409064
173	0x3f7e02a6	0.9922279
174	0x3f8e0e6c	1.1098151
175	0x3f77f5e1	0.96859556
176	0x3f711207	0.9416813
177	0x3f8077f3	1.0036606
178	0x3f66c3c7	0.9014248
179	0x3f845c64	1.0340695
180	0x3f8450e1	1.0337182
181	0x3f77ea77	0.9684214
182	0x3f67d89a	0.9056488
183	0x3f751dcd	0.957486
184	0x3f7ffe70	0.99997616
185	0x3f935874	1.1511369
186	0x3f844ca4	1.0335889
187	0x3f83e653	1.0304664
188	0x3f7b4a45	0.981602
189	0x3f822838	1.0168524
190	0x3f8df12e	1.1089227
191	0x3f7ca09b	0.98682564
