dnn/models/reg_50k.pt (torch, 278622 bytes, 19 tensors)

net.0.weight f4 [192, 52]
00000000: 5c7c f23d 679c a83d 5d64 733c c30b a83d
00000010: 8a36 ec3c ece9 003d 0d43 04bd ca78 953d
00000020: ba11 173e d81a aebd 70dd 3d3c f45a 5d3c
00000030: 682f 983d dc71 46bd 672d 023d ad2e 5abc
00000040: e68f 893d a73a 923a 65bb 47bd aa00 14be
00000050: f266 283c 85bf 83bd 1e81 1d3e fe26 dabc
00000060: 7f53 9abe 9019 023e bc4e 0c3d b864 7ebd
00000070: 1d66 263d d6b0 27be eec3 373c 399f a6bd
00000080: c0db e23b 21e9 823e 0d92 93be 4828 863d
00000090: 2e7e f83d 8b10 eb3c 7bd5 053a d8d0 a7bd
000000a0: b6ab bdbd 4f84 35b8 7098 c93d 751a ff3d
000000b0: 642f da3d cb4e 10bd 5929 4f3d 878c eb3d
000000c0: e588 3ebd ea74 133d cd8f 22be 228a 5bbe
000000d0: 3a52 52bd 8cf2 be3d 6af4 f63c 5a08 893d
000000e0: da7f b9bc d4c4 6fbc 760c b13d eeda afbd
000000f0: 4d61 843d c766 81bb e561 bb3c b8f2 0a3d
00000100: 59dd fe3c 61b0 1bbd 5b1b 6f3d bd23 c2bd
00000110: 725c b5bd bc3c dabd 0555 993e d68d 26be
00000120: 17c6 613e 8a8f 77be b908 ae3c c44f 2bbe
00000130: 1b44 67be 2624 503e b982 dc3c 7b3d 883c
00000140: 8dbe d4bd 5c65 babd f7f7 aebc 8c2f 61bd
00000150: e3cc 413c b663 003e 8b9e f3bd a94d a4bd
00000160: 9e2f cdbd c341 b03d c5cd 253b 72e3 343d
00000170: c897 eb3d ea40 d23d 1548 4abd ef6a 0dbe
00000180: 1c3e cb3c 32fe d53c d7da 23bd f5ca ccbd
00000190: 682a 5f3b 1538 2bbd 62f2 ef3c e69e 31bd
000001a0: 3fe3 4d3c 8a3f 4fbd 6664 19be 5eab b2be
000001b0: fb62 0bbe 43b2 a6bc 2838 b83d 7b02 f8bc
000001c0: 81fc c33c e9bc 72bd c5a2 93bb 26ba 093d
000001d0: a73a 8b3d c14e 88bd d1ef 5ebc ea4d 8fbd
000001e0: 41c4 023d 9346 bebc 76dc e9bd 4632 1a3d
000001f0: 1e7d 95bd 0691 173d 6b78 c3bd 4d12 f43c
00000200: 1e14 8a3e 7141 2fbe bc1b 753e 6780 fbbb
00000210: 457c e1bd f16c cabb 29be 1ebd c65b 6abd
00000220: 0b78 62bd 8134 8abe d6ab 853e 15ae c1bc
00000230: 2cb3 d73d f494 1cbe 0da0 913d 09c9 0dbe
00000240: 695e db3c 961e 593b b40a 1dbb e844 253e
00000250: 1a65 603d 28e9 f6bc 6f45 843d dca3 8dbd
00000260: 63ed 97bc d6aa 06be 5024 143e a837 b0bd
00000270: f8bf 303d bebc a3bd 3311 7c3d 202d 60be
00000280: 5b14 933d d8ef a5bd 6c53 793b 8d28 fcbd
00000290: 435a 8e3d bf3f 433d b8fc 04be e8e0 e63d
000002a0: f9a4 913d abc5 a4bd 46da 8bbd 6e24 923c
000002b0: 3b99 be3d f9b8 733c 0436 fdbd f8ef 9f3c
000002c0: ca89 cebd 1d1a a63d 300c 043e 275e f2bd
000002d0: b9b0 8e3d 68aa a13d 631a 013e 8584 94bd
000002e0: 666f 863d 1c4f 7b3d 8f68 2c3c 4361 aa3b
000002f0: b7b9 a6bd d7e4 a83c 8db5 55bc ca6a 26be
00000300: db56 6f3e e40f 653c 278b 13bc fece 523e
00000310: 4e37 c8bc 7f4b 313d 114e 973d da80 ffbd
00000320: abfe 41bd e016 a2bd 1a05 b03d 679e df3c
00000330: 56c5 f03d 4dfb babc 76fe 0abe 70df 04be
00000340: 6cc9 13bd 6c2e 2b3c 2b9c 683d e7f7 ad3d
00000350: 0cd7 14be 4f5a 9f3c 2b64 35bd 782e aa3d
00000360: 5ad8 cf3d 40dd dd3c d5e1 183e 2afd c4bc
00000370: fd27 42be 1f6d 863d f83b 3bbb 81ba e33b
00000380: 47f6 9ebd 9621 2a3e 99a8 6a3e 4581 38bd
00000390: 1f00 46bd b7de cbbe 4a25 cabc 79b4 b13b
000003a0: 446b adbd 0f77 4c3e 37a5 013d a557 a33d
000003b0: 2cca 64bb d057 94bd 3205 a3bd 9866 25be
000003c0: a679 e13d eec4 793d 0e05 33be bf2f 3fbe
000003d0: fced 073d 0542 a5bc 209b 06be 559b 683e
000003e0: 5504 8d3b aaaf bd3d 2bc7 973b 8089 c7bd
000003f0: a2da 663d ea25 dbbd 5c4f 07be fd6f 4c3d
0.11840126 0.082329564 0.014855471 0.08205368 0.0288346 0.031473085 -0.032290507 0.07298429
0.14752856 -0.08501214 0.011588439 0.013510454 0.07430917 -0.04844843 0.03178158 -0.013316792
0.067168996 0.0011156396 -0.048762698 -0.14453378 0.01027845 -0.06433014 0.15381286 -0.026629921
-0.30141827 0.12705064 0.034254774 -0.06210777 0.040624727 -0.16376051 0.011216147 -0.08135838
0.006923169 0.25568488 -0.28822365 0.06550652 0.12133442 0.028694412 0.00051053584 -0.08194131
-0.09261267 -4.3276985e-05 0.09843528 0.12456218 0.1065357 -0.035231393 0.05057654 0.11501413
-0.04651727 0.03600017 -0.15875168 -0.21439412 -0.05134795 0.09323606 0.030145843 0.06691046
-0.022643972 -0.01463433 0.08644955 -0.085866794 0.06463871 -0.0039490196 0.022873828 0.03392288
0.031111406 -0.038010005 0.058375698 -0.09479473 -0.08855523 -0.106561154 0.29947677 -0.16265044
0.22048222 -0.2417585 0.021244394 -0.16729647 -0.22584574 0.2032629 0.026917802 0.016630879
-0.10387907 -0.09101364 -0.021358473 -0.054976985 0.011828634 0.12538037 -0.11895474 -0.08022625
-0.10018848 0.08606293 0.002529965 0.04416222 0.11503559 0.102662876 -0.04938515 -0.13810323
0.02480989 0.026122186 -0.040003624 -0.099996485 0.0034052376 -0.04180153 0.029290382 -0.043364428
0.012566387 -0.050597705 -0.14979705 -0.34896368 -0.13611977 -0.020348674 0.08995086 -0.03027462
0.023924114 -0.05926219 -0.0045054876 0.03362479 0.067982964 -0.06655646 -0.013606981 -0.06997283
0.031925444 -0.023227012 -0.11419003 0.0376456 -0.07299255 0.03700354 -0.09544452 0.029793883
0.26968473 -0.17114808 0.23936361 -0.007675219 -0.11010031 -0.0061775376 -0.03875557 -0.05721643
-0.055290263 -0.26993182 0.26107663 -0.02364258 0.10532221 -0.15291196 0.071106054 -0.1384622
0.026778417 0.0033129803 -0.0023962678 0.16139567 0.054783918 -0.030140474 0.06458556 -0.06916019
-0.018545812 -0.13151106 0.14466977 -0.086043656 0.043151826 -0.07994984 0.06153984 -0.21892214
0.07181617 -0.08102387 0.0038044108 -0.12312422 0.0695081 0.047668215 -0.1298703 0.11273366
0.07111544 -0.08045515 -0.06828742 0.017839637 0.0930657 0.014875644 -0.12363818 0.019523606
-0.10084875 0.081104495 0.12895274 -0.118343644 0.06967301 0.078938305 0.12607722 -0.072518386
0.06564216 0.06135474 0.010522976 0.005199583 -0.08140891 0.020616932 -0.013043773 -0.16251674
0.23372976 0.013980839 -0.0090053445 0.20586774 -0.024440434 0.04328489 0.07387937 -0.12475748
-0.04736201 -0.07914519 0.08594723 0.027297212 0.11756389 -0.022824908 -0.13573632 -0.1297586
-0.036080763 0.01044808 0.05678956 0.08494549 -0.14535159 0.019452242 -0.04428498 0.083096445
0.10148688 0.02708304 0.14929898 -0.0240465 -0.18960567 0.06563782 -0.002856968 0.006949723
-0.077618174 0.16614375 0.22915877 -0.045045156 -0.04833996 -0.39818355 -0.024675984 0.0054231253
-0.08467725 0.19967292 0.0316517 0.07975701 -0.0034910543 -0.072433114 -0.07959975 -0.16152418
0.11009531 0.060978822 -0.17482397 -0.18670557 0.033185944 -0.020173082 -0.13145113 0.22715504
0.004303495 0.09262021 0.004631897 -0.09743023 0.05636085 -0.10700591 -0.13213867 0.049911488

net.0.bias f4 [192]
00000000: 1491 3cbc 54eb c93d e191 19be 610e e2bd
00000010: baa3 a83d bc22 1cbd 55c3 bc3d 5983 433c
00000020: 8578 66bb 14e4 393d 2850 c13d 31cf c73a
00000030: 53ec d03d 0797 47bd dded cd3d 086f 56bd
00000040: 1325 613d 272e cabd fa00 21be db66 89bb
00000050: 1252 f03d 24c9 b13c 86cb 03be 8379 203e
00000060: 8db4 8a3d 772c c73d a7e3 853b a868 523d
00000070: b84a d93d 666b 74bd cfe3 7f3d 7e69 e1bd
00000080: 095c 623c 5af5 f4bd 6551 00be 0217 263e
00000090: cc6f 7fbd 2ba8 abbc ed42 c53d 3124 e83d
000000a0: 5f47 b0bd 48f4 82bc ebf4 353d 48d8 be3d
000000b0: 3001 f4bd f4a8 40bd b897 b5bd a04c fc3c
000000c0: 22cd 153d 277c 9fba 21dc 03bc 61f6 05be
000000d0: 1bfd c6bd 6f65 58bd ccbb d53c 6bad 603d
000000e0: 2b29 743d 62b7 cabd 3e8b cd38 d728 17bd
000000f0: a6a1 093e 9ebe c83d f6af b7bd b899 43bd
00000100: 1928 8fbd 372f 7abd 0757 0cbe 1ebc 213d
00000110: 35e7 d5bd 2d90 20bd b0bc 7a3d fbe3 d0bc
00000120: e62f a93d 8c4d f33d 2f43 0fbe 6b46 043d
00000130: e06c 293d 0402 363e c1e8 a4bc 4b97 86bd
00000140: 4b2b a83c b35d 543d 3215 2d3d a968 a53d
00000150: 84cd 853c 4aff fabd 97d7 76bd e38c f8bd
00000160: 3b32 17be 192f 233e d021 94bd d220 9abd
00000170: f2ba 2ebd bc70 953d 17dc a7bd 7996 b9bd
00000180: eec1 e8bd 6510 1a3c 1379 8fbc 1ee8 b3bd
00000190: 1b66 8ebd ba52 2cbe 6a1e 3f3d e547 a63d
000001a0: 0838 1e3d 5b24 9cbc f0d2 88bd a9ee 433d
000001b0: daa4 dcbc d295 203b 92ae ccbc 056e 27b9
000001c0: 67b8 aa3c c57b 153e 332b c63d 68f8 14bd
000001d0: cced 3dbc e51e c1bd fbd2 f6bd d0d5 ea3d
000001e0: 02f6 fb3c e901 e9bd 25f0 063d d72c 953d
000001f0: ec3c b33c 8347 cc3d 6637 403d 3624 0bbe
00000200: 37a8 e5bd 4f53 f33d 093d 5f3d b682 0fbe
00000210: 1c7f d43d 3466 98bd 8f49 c53d fd62 b63d
00000220: b113 a13d 6626 413d 4896 c0bd 17aa 6abd
00000230: 20da a4bc dbcf 353d a548 f03d 99a0 0ebd
00000240: 9fe4 753d 2f37 05be c309 25bd 2746 bf3d
00000250: e44e 023d a252 be3d 9d0f e5bd 1af8 c3bd
00000260: c71f 8f3d 775a bcbb d0c1 d8bd cda5 403d
00000270: 459c 003c a5a2 56bc ad98 3c3d d142 b3bd
00000280: e79c 01be 554c f2bd 1d4e 983d 1603 51bd
00000290: b858 1a3e a41d f2bb a4d9 0f3c c28a 453e
000002a0: 45fc 43bd 8a98 08be bc30 1e3d 4e9d abbd
000002b0: bc66 113d 1958 413d d998 a63d 45c1 83bc
000002c0: 69a1 8dbd a84a b5bd 027b e9bd 264f 4c3d
000002d0: ee35 56bc 2650 09bc a597 b2bb 86b1 9bbd
000002e0: 9131 a83d 382b 62bd 7af8 48bd 2aa8 093e
000002f0: a044 423d 9cd7 ea3d 71fe ba3d 0ae6 20be
-0.011509199 0.098593384 -0.14997055 -0.11037899 0.08234353 -0.038119063 0.09216944 0.011933171
-0.003516705 0.045383528 0.09439117 0.0015244243 0.10201325 -0.048728015 0.100551344 -0.05235198
0.054966997 -0.09872084 -0.15723029 -0.0041931695 0.11734404 0.021702357 -0.12870607 0.15671353
0.067727186 0.09725278 0.004085976 0.05136934 0.106099546 -0.059672736 0.062473115 -0.11006449
0.013815888 -0.119608596 -0.1253105 0.16219714 -0.062362477 -0.020954212 0.09631906 0.11335028
-0.08607363 -0.015985623 0.044423025 0.09318596 -0.11914289 -0.047036126 -0.08866829 0.030798256
0.036572583 -0.0012167738 -0.008048088 -0.13082267 -0.09716245 -0.05283111 0.026090525 0.054852884
0.059609573 -0.09898259 9.8010976e-05 -0.036904182 0.1344057 0.09801982 -0.08969109 -0.04775402
-0.0699007 -0.061080184 -0.13705073 0.039486043 -0.1044449 -0.039199997 0.061215103 -0.025499335
0.08261089 0.11880025 -0.13990472 0.03229372 0.041363597 0.17774206 -0.020130517 -0.065718256
0.020528456 0.05184717 0.04225654 0.08076603 0.016333349 -0.12255724 -0.060264196 -0.12136247
-0.14765255 0.15935935 -0.07233012 -0.07525791 -0.042658754 0.07296893 -0.08196276 -0.090619035
-0.11365114 0.009403323 -0.017513787 -0.08784507 -0.06953069 -0.16828433 0.046659864 0.081191815
0.038627654 -0.019060304 -0.06680858 0.047835026 -0.026934076 0.0024503362 -0.024985585 -0.00015967347
0.020839883 0.14597996 0.09676208 -0.03636971 -0.01159234 -0.09429721 -0.1205196 0.11466563
0.030756954 -0.113773175 0.032943863 0.07283943 0.021879636 0.09974577 0.046927832 -0.13588032
-0.11213725 0.11881124 0.054501567 -0.14014706 0.10375807 -0.07441369 0.09633171 0.08905599
0.07865084 0.04715576 -0.09403664 -0.057291117 -0.020123541 0.04438768 0.11732606 -0.034821127
0.060032483 -0.13009332 -0.040292513 0.093395524 0.031813517 0.09293105 -0.111846186 -0.09568806
0.06988483 -0.005748089 -0.10583842 0.04703312 0.007849758 -0.013100301 0.04604404 -0.087529786
-0.1265751 -0.118309654 0.07436774 -0.051028334 0.15072906 -0.0073887873 0.008779917 0.19291213
-0.047848005 -0.13339439 0.038620695 -0.08379613 0.035498366 0.047203157 0.08134622 -0.016083369
-0.06915552 -0.0885213 -0.11400415 0.04988017 -0.013074381 -0.008380925 -0.0054502063 -0.07602219
0.08212579 -0.055216998 -0.04906509 0.13443056 0.047428727 0.114669055 0.09130562 -0.15712753

net.1.weight f4 [192]
00000000: fd4e 6e3f 2862 763f 7525 773f 58be 6b3f
00000010: cdce 7e3f 321c 503f e993 7a3f f9ed 703f
00000020: 94d1 803f f97a 5d3f 10be 893f 3905 6a3f
00000030: 3c40 723f 3a2e 883f c86e 6d3f 5e5e 863f
00000040: 8358 7a3f a47a 4f3f a358 7b3f 83e3 793f
00000050: cc43 773f 8805 813f 18be 803f 3691 6c3f
00000060: 426e 803f 2de2 833f c419 753f e25e 813f
00000070: e69d 753f ee00 803f aafc 783f cc94 7f3f
00000080: 6e8e 803f 53e2 7f3f 13a6 753f e8e6 823f
00000090: 29e9 6d3f 4924 703f ce8c 863f a8a7 813f
000000a0: 2c12 783f f264 7f3f 0bea 763f 0fac 783f
000000b0: df2e 6f3f 0bfd 773f d26f 833f 0699 803f
000000c0: 4e25 613f 1d99 7c3f 5616 863f 9f3a 6f3f
000000d0: 0927 993f f668 5e3f fbca 663f f3a7 843f
000000e0: 1551 893f 1f94 7b3f b282 603f ff75 7d3f
000000f0: d301 6d3f 58e1 823f 8b39 803f dac5 863f
00000100: df00 733f 6dfa 743f 6d5f 763f 6f30 6e3f
00000110: e473 7a3f 0aed 7b3f 39e1 7e3f 99f3 6e3f
00000120: 0ea6 833f 592b 6e3f b881 603f 0fce 733f
00000130: 9c81 6b3f a6ac 893f 3ca0 833f 94c7 813f
00000140: aa7b 863f 7041 633f d15b 7b3f fca9 893f
00000150: a504 793f c8cc 833f 5fca 713f 056a 833f
00000160: 1c38 6f3f aca6 763f dcd5 773f 3f25 863f
00000170: a0cc 733f 0df9 723f 1d39 773f 020e 5f3f
00000180: 5d26 6d3f 25f3 733f 6556 8c3f ee7b 813f
00000190: c557 813f 2ff6 693f 6511 7a3f 9cca 933f
000001a0: cbea 763f f9a0 843f 103d 743f a44b 7a3f
000001b0: 9ef7 863f d496 693f 9ecf 723f 9409 823f
000001c0: 9076 763f e921 823f 3fc5 8b3f 7684 663f
000001d0: fa99 7d3f a971 823f 4268 813f 99a7 843f
000001e0: f358 6d3f 6d73 763f 49c5 7d3f 89df 773f
000001f0: 97bb 763f e41f 7b3f a03e 803f b840 833f
00000200: 53f8 633f 9f93 753f 9d90 823f 967b 793f
00000210: 1d90 6a3f e9bc 7b3f 9bee 6d3f 8605 6a3f
00000220: d061 7e3f 89f7 773f 2d06 6e3f 1ba5 883f
00000230: c4f8 883f 1219 833f b335 6a3f fae6 7e3f
00000240: 30bc 803f ba59 733f 6387 733f 56ea 7d3f
00000250: 0e00 843f 458a 7f3f a2f8 833f b65d 713f
00000260: c4af 7b3f 9f70 7e3f 58fe 6a3f ee70 703f
00000270: 8b29 743f 4b97 813f b45f 733f 38b2 713f
00000280: 4233 713f 4714 753f 2589 7e3f 71e0 833f
00000290: 620a 803f 6bb6 7c3f af88 713f 1d99 813f
000002a0: 290a 6b3f 2121 6b3f 23ce 733f 7a54 753f
000002b0: 079d 883f 02e5 533f 1d22 753f a9ca 6c3f
000002c0: 0631 7f3f d9a9 7c3f fcca 793f bd4a 7c3f
000002d0: 3263 893f 8e22 553f 1538 743f 32f8 743f
000002e0: 0005 733f 41cf 853f 2fcc 683f 57ef 703f
000002f0: 04d7 863f fd09 7b3f 9374 753f b3e4 903f
0.93089277 0.96243525 0.9654153 0.92087317 0.995343 0.8129302 0.97881943 0.9411312
1.0063958 0.86515766 1.0761127 0.9141422 0.94629264 1.0639107 0.92747164 1.0497549
0.9779131 0.8104651 0.98182124 0.9761278 0.96587825 1.0079813 1.0058012 0.92409074
1.0033648 1.0303398 0.9574244 1.0107081 0.9594406 1.0000284 0.97260535 0.9983642
1.0043466 0.9995472 0.95956534 1.0226717 0.929339 0.93805367 1.051172 1.012929
0.9690273 0.99763405 0.9645087 0.9713754 0.93430895 0.9687049 1.02685 1.0046699
0.8794755 0.9867113 1.0475566 0.93448824 1.1965038 0.8687891 0.90153474 1.0363754
1.0727869 0.9827289 0.87699425 0.9900817 0.9258091 1.022502 1.0017561 1.052913
0.94923204 0.9569462 0.9623936 0.93042654 0.97833085 0.9840857 0.9956241 0.9334045
1.0285051 0.93034893 0.87697935 0.95236295 0.91994643 1.0755813 1.0283275 1.0139031
1.0506489 0.88771725 0.98186976 1.0755 0.9727271 1.0296869 0.9444942 1.026673
0.9344499 0.9634807 0.968107 1.0480117 0.9523411 0.9491127 0.9657152 0.8713075
0.9263666 0.95292884 1.0963866 1.0115945 1.010491 0.9139127 0.9768279 1.1546206
0.96452016 1.0361625 0.95405674 0.9777167 1.0544317 0.9124577 0.9484805 1.0159173
0.9627466 1.0166599 1.091957 0.9004587 0.99063075 1.0190936 1.0109942 1.0363647
0.9271385 0.96269876 0.9912916 0.9682546 0.9637999 0.98095536 1.0019112 1.0254126
0.8905079 0.95928377 1.0200382 0.974542 0.9162615 0.9833513 0.9294221 0.9141468
0.99368 0.96862084 0.92978173 1.0675386 1.0700917 1.0242026 0.9148819 0.9957119
1.005743 0.95058787 0.9512846 0.99185693 1.0312517 0.9982036 1.0310252 0.94283617
0.9831507 0.99390596 0.9179435 0.9392232 0.9537589 1.0124296 0.95067906 0.94412565
0.9421884 0.95734066 0.99428016 1.0302869 1.0003169 0.9871585 0.9434919 1.0124851
0.9181238 0.91847426 0.95236415 0.95832026 1.0672921 0.82771313 0.9575518 0.92496735
0.9968418 0.98696667 0.97575355 0.9855154 1.0733397 0.8325585 0.95398074 0.95691216
0.94929504 1.0453874 0.9093656 0.94115204 1.0534368 0.98062116 0.95881003 1.1319793

net.1.bias f4 [192]
00000000: 8d30 6cbe 5bbc ecbd c2ae 86be 2924 a0bc
00000010: 7f00 05be 7594 d2be 0604 a4bd e7d8 cbbd
00000020: 5ec1 63be c790 00be 3a86 44be 1270 63bd
00000030: a5bb aabd d346 27bd 3688 af3c 57ef b7bd
00000040: 55b7 77bd d253 b0bd 15a6 39be 9722 a4bd
00000050: 2ab5 c3bd 0d6c dcbd b484 2bbe 350e f7bc
00000060: 008e 43be b10e 8d3c a5ec 05bc 626a 42be
00000070: 1d7a 98be ef09 6dbe f243 e33c 81de 5bbd
00000080: eb57 91bd 26f6 94bd 8c1d abbd ca4a c9bd
00000090: 62ab a6bd 00b9 00be 04f8 abbd 3d63 cdbd
000000a0: a024 9ebd 3441 663c fec1 94be 120b 87be
000000b0: ccca 18bd 38c2 fdbd 98b1 3fbe b90c bebd
000000c0: 965b 15be 0d50 58bd c478 0bbd a5c4 b4be
000000d0: 3131 29be 913e 4abe 09a3 38be 2fc1 bdbd
000000e0: 7d8c 04be 2fe9 83bd 6a0b aebd 4a4f 11be
000000f0: 2ec6 3ebd 7040 93bd 6d98 a5bd eee9 5cbe
00000100: 3cd1 8dbe 755e e3bd c6f8 40be 861a 2c3c
00000110: 4987 eebd dec2 c7bd 7daa 12be 657d 11be
00000120: 86af 45be 45c9 7abe afe9 4bbd 56a1 f0bd
00000130: d4a1 9c3c c7cd e2bd 6664 f1bd 0e26 e8bd
00000140: 965a 1fbe c856 8fbd 788e 7bbe facf 40be
00000150: 9843 8ebe d852 fabd d285 04be ac3a 17be
00000160: b410 dcbd 5bd0 27be 5bdc 2bbe d93a 18be
00000170: e005 4bbd e7e1 82be 3c51 f1bc d3a3 9fbd
00000180: 0ef9 02bd 98e4 28be fd5f edbd fe74 7cbd
00000190: 1206 fcbd 4397 a3bd 0693 ecbc 9afa 1ebe
000001a0: 39f8 b0bd 4ecb 0abd e997 b9bd c066 45be
000001b0: da80 12be 4854 42be 0cd4 2bbe c1df 1fbd
000001c0: a4b6 16be 490a 13be 1258 61be 5736 c1be
000001d0: 13ce 49be 6d27 1ebe c717 44be 124f ffbd
000001e0: 861e 15be 8076 b7bd 0639 99be 0128 0cbe
000001f0: 7b2e 99bd 6a72 abbd c24a 26be cf1b 593d
00000200: 8330 adbe 5d61 72be 443c 7bbd 56ca 37be
00000210: e033 91be 14e8 dbbd b070 28be 51c3 3abe
00000220: ef26 bcbd fce9 05be a54f 25be ea19 2dbe
00000230: b0ab 6cbe cae1 99bd 3062 4bbd 4cfd 9bbc
00000240: 4274 a1bd 9927 67be d86b babd 61a3 3cbd
00000250: d254 cebe a0a9 3abe a2dc ebbc e826 febc
00000260: 98de 0dbe 3161 98be 2d02 40be ac84 45be
00000270: a684 61be 41db 7dbd 5df4 a9be b58e f6bd
00000280: 13db e7bd 077d 65be c297 28be 8df4 70bd
00000290: 1659 27be 959f 03bd 2696 86bd d1e7 50be
000002a0: 93f6 4ebe 5a31 b0bd 5839 9ebd 0bb7 edbd
000002b0: e447 4dbe fbbd 11bf 5d86 ddbd 94ab 93bd
000002c0: bf85 e2bd c867 06be aef5 01be 934b 61be
000002d0: 1702 38be a794 67be e7f4 c8bd 7f3d 59be
000002e0: a7a0 11be 146e 803c ab6c aabe 4f9e 53bd
000002f0: 6142 c5bd e1d6 30be e5c3 81be a5a1 a6be
-0.23065396 -0.115593635 -0.26305205 -0.019548493 -0.1298847 -0.4112889 -0.0800858 -0.0995348
-0.22241732 -0.12555228 -0.19191828 -0.0555268 -0.083365716 -0.040839028 0.021427255 -0.08981197
-0.060477573 -0.086097375 -0.18129762 -0.0801441 -0.09556039 -0.107627966 -0.16749841 -0.030158142
-0.19097137 0.01721892 -0.008174096 -0.18985894 -0.29780665 -0.2314832 0.02774236 -0.053678993
-0.07096847 -0.072735116 -0.08355245 -0.09828718 -0.081381574 -0.12570572 -0.083969146 -0.10028694
-0.077218294 0.014053632 -0.29054254 -0.26375633 -0.037302777 -0.1239056 -0.1872009 -0.092797704
-0.14585719 -0.052810717 -0.034050718 -0.35306278 -0.16522671 -0.1975043 -0.18030943 -0.092653625
-0.12944217 -0.064409606 -0.08498271 -0.14190403 -0.046575718 -0.07190025 -0.080857135 -0.21573612
-0.27698696 -0.111020006 -0.188449 0.010504371 -0.11646897 -0.09753965 -0.14322849 -0.1420799
-0.19305238 -0.2449084 -0.049783405 -0.117495224 0.019120134 -0.11074405 -0.117867276 -0.11335383
-0.155619 -0.06998974 -0.24566066 -0.18829337 -0.27785945 -0.122228324 -0.12941673 -0.14768475
-0.10745373 -0.16388075 -0.16783278 -0.14866199 -0.04956615 -0.25562975 -0.02945768 -0.07794919
-0.0319758 -0.16493452 -0.11590574 -0.06163501 -0.12305845 -0.07987835 -0.0288787 -0.15525284
-0.08641095 -0.033885293 -0.09062178 -0.19277477 -0.14306965 -0.18977463 -0.16780108 -0.039031748
-0.1471811 -0.14359392 -0.22006252 -0.3773677 -0.19707517 -0.15444727 -0.19149695 -0.12466253
-0.14562425 -0.08958149 -0.29926318 -0.13687135 -0.074795686 -0.08371432 -0.16239455 0.053005036
-0.33826074 -0.23669954 -0.06133677 -0.17948279 -0.2835989 -0.10737625 -0.16449237 -0.1823857
-0.091871135 -0.13077539 -0.16143663 -0.16904417 -0.23112369 -0.07513769 -0.049654186 -0.01904168
-0.078835025 -0.22573699 -0.09102601 -0.046054248 -0.40299088 -0.1822877 -0.02879173 -0.031024411
-0.13854444 -0.2976165 -0.1875083 -0.19288892 -0.22023258 -0.061976675 -0.33194247 -0.12038938
-0.11321082 -0.22410975 -0.16464141 -0.05882697 -0.16342577 -0.03213461 -0.06571607 -0.20400931
-0.20211248 -0.08603163 -0.07725781 -0.11607178 -0.20046955 -0.5693051 -0.108166434 -0.0721046
-0.11060666 -0.13125527 -0.12691376 -0.22001486 -0.17969547 -0.226153 -0.098123364 -0.21214865
-0.1422144 0.01567749 -0.33286032 -0.051664647 -0.096318014 -0.1726947 -0.25344768 -0.325452

net.1.running_mean f4 [192]
00000000: ce3c 613d 30b7 283d d892 26be c7ea 0dbe
00000010: 885c 91bd 54e5 ddbd a557 a5bc 2212 d63c
00000020: b8da 81bd dcf5 a3bd 55b3 b8bd 7cbb 2b3d
00000030: 77c6 1b3d a5bf ac3d 87c0 1b3d 90b5 b0bc
00000040: af94 cc3d 2d3d 4fbe cc16 c8bd 72e1 37bd
00000050: b18b d3bb 0c53 a939 838b 87be cd54 783e
00000060: f373 e23d 0cbc e33d c2af 10be 8a3f 173d
00000070: 34fe 553d 1a34 99bc ae38 d13d e2ca 12be
00000080: afc7 023e 12a1 29be 938a 3abe 94ee 813e
00000090: 5bde 29be 2303 1ebd c6f7 9dbc 017e 6c3e
000000a0: 7a40 a53d e767 1a3d 84ce 4cbc 5d41 833d
000000b0: f2b1 01be 2430 bbbd e30b 70bd 4e0f 2bbd
000000c0: d68a ea3c 24fb 6f3d 28fd 883c 8469 08be
000000d0: 96bb c93b 3bea 98bd 8ffe cf3c d847 353e
000000e0: 0379 f83d 99b5 5bbc c803 ef3d d801 203d
000000f0: 5024 743e 2774 873e 3960 01be 00f1 19be
00000100: dace 21bd f0bc c4bd aecb dabd 925d b33d
00000110: b66f 34be 0033 113e 3136 953d c0ca 84bd
00000120: 091a 0dbd 8983 3a3e 7ec6 0ebe 4862 a53d
00000130: a283 c0bd aca9 573e 6ef2 f0bd cb24 c6bd
00000140: 8c66 e5bc 6f6c a23d 0252 533d 732f 993d
00000150: 7a7a 9abd ee71 2fbe 9e15 87be 28b5 17be
00000160: c5ac e0bd 6567 5d3e 53f1 3fbd c780 a03c
00000170: 745c 5ebc d808 5e3d fe40 c1bb b2df dabd
00000180: 050d 8bbd 91e3 e5bb 7622 9f3c c385 8bbd
00000190: 6eb0 613c eaa6 46be 60ed bd3d bf95 1f3e
000001a0: cb39 b23c 724f 773c 3f30 813c 873e 4a3d
000001b0: d91c 26bd 6186 573d a0a6 223b 3a7b 3a3e
000001c0: e44e ce3c a741 cc3d 5645 b33d 6a72 4abe
000001d0: 0126 bebc c5a0 40be 5e2e 76bd 243a e33c
000001e0: c57a e83d 9e1b 86bd f4bf 213e af9c 6d3d
000001f0: e079 4dbc 7c9b 8f3c 5c57 44bd 3735 7abe
00000200: acd3 22bd ed97 f03d 362c da3c 1e60 15bd
00000210: e36f 633e e671 15bd 9acc cf3d 253d 693c
00000220: efa3 933d faf3 733d 6150 4bbe 2cfd bc3c
00000230: 884d b5bd ed03 933d d1cf c83d f7a0 32be
00000240: 426f a13d b2e1 35be cacd d7bc 8c2f 9cbc
00000250: 03ae 2f3d bc81 d23d 2619 90bd 4e26 52bc
00000260: 2d94 af3d 50a9 3ebe 7946 f1bd bc7c 40bc
00000270: 50b9 163e c7d5 0dba 19cf c73d 9e9e b5bc
00000280: f12f 36be 095f 0ebd 2edf 443d 0d17 01be
00000290: 8a88 ed3d 9fec 9abc 5ea2 023e 55a6 d43c
000002a0: 1893 05be 5950 6cbe b271 1fbd d4d1 90bc
000002b0: e9f9 c43d 8cda c13d c6b9 4bbd 9f15 1dbe
000002c0: c3c9 033d bc7d bebc bdaa aebd fedd 553e
000002d0: 5108 d33c 11f9 e5bd bf26 cd3b e504 d53c
000002e0: d780 833e d324 1abd 2f68 32bc 14e9 fabd
000002f0: e150 723d 5788 2c3e 810a d53d a1ad 4cbe
0.05498963 0.041190326 -0.16266954 -0.13859092 -0.07097727 -0.108347565 -0.020183394 0.026131693
-0.063405454 -0.08005878 -0.0901858 0.041926846 0.038031068 0.08434991 0.038025405 -0.02157095
0.09989297 -0.2023818 -0.09769973 -0.044892736 -0.0064558615 0.00032296067 -0.26473626 0.24251099
0.11057272 0.111198515 -0.14129546 0.03692583 0.05224438 -0.018701602 0.10215889 -0.14335206
0.12771486 -0.1656535 -0.18216924 0.25377333 -0.16588728 -0.03857721 -0.019283187 0.23094942
0.080689386 0.037696745 -0.012500409 0.064089514 -0.12665537 -0.091400415 -0.058605086 -0.041762643
0.028630655 0.058589116 0.016722277 -0.13321501 0.006156395 -0.07466551 0.025389938 0.17703187
0.12132456 -0.0134099955 0.11670643 0.03906426 0.23841977 0.26455805 -0.12634362 -0.1503334
-0.03950391 -0.096063495 -0.1068338 0.087580815 -0.1762074 0.14179611 0.07285727 -0.06483984
-0.034448657 0.18214239 -0.13942906 0.08075386 -0.09400107 0.21060818 -0.1176499 -0.096749865
-0.028003 0.07930838 0.05159188 0.07479753 -0.07542892 -0.17133304 -0.2638368 -0.148152
-0.10970453 0.21621473 -0.046861004 0.019592656 -0.013571847 0.054207653 -0.0058976403 -0.10687198
-0.06789593 -0.0070156534 0.019425612 -0.068126224 0.013774974 -0.1939961 0.09273791 0.15584467
0.021756073 0.015094625 0.015770076 0.049376037 -0.040554855 0.052618388 0.0024818555 0.1821107
0.025184102 0.0997346 0.08753459 -0.19770208 -0.023211481 -0.18811329 -0.060102813 0.027737685
0.113515414 -0.06548236 0.1579588 0.058010753 -0.012541264 0.017530195 -0.047934875 -0.24434362
-0.039752647 0.117477275 0.02663241 -0.036468618 0.2221065 -0.036485575 0.101464465 0.014235769
0.07209002 0.059558846 -0.19854881 0.02306994 -0.088526785 0.07178483 0.09805263 -0.17444216
0.07882549 -0.17761877 -0.026343245 -0.01906564 0.04289056 0.10278651 -0.07036047 -0.012826515
0.08573184 -0.18619275 -0.1178102 -0.011748489 0.14719129 -0.00054105785 0.097562976 -0.022170361
-0.17791726 -0.0347586 0.048064403 -0.1260645 0.115983084 -0.018911658 0.1275725 0.02595822
-0.13044393 -0.23077525 -0.038926788 -0.017678179 0.09617979 0.09465513 -0.049737714 -0.15340279
0.032174837 -0.023253314 -0.085286595 0.20885465 0.025760802 -0.11229146 0.0062607224 0.02600331
0.25684234 -0.037632775 -0.010889097 -0.122514874 0.059159163 0.16848885 0.10402394 -0.19988109

net.1.running_var f4 [192]
00000000: ad5a 143e 95d9 523e 5a0d f83e 46ff 853e
00000010: 7ddf e33e b755 823e 648c a43e 9b01 603e
00000020: a5f7 6e3e 15d8 e63e 1237 6d3e 8020 203f
00000030: 23eb 7e3f aad5 f53e 91d9 013f 3803 383e
00000040: 107e 863e 2bc9 8f3e 90ed 1b3e f630 0a3e
00000050: 4a09 223e df5b 533f bc71 a93e 5514 a33e
00000060: 1c59 023f c058 0b3e 77bd db3e b6b1 093e
00000070: af3e ea3d c4a0 ee3d e1cd d93d 9a45 4d3f
00000080: 1fda d43e 29be 1f3e deab 783e fe15 1d3e
00000090: 114b 033f b69a 1f3e e24d bf3d 8333 1c3e
000000a0: 35f4 1b3e df8e 6a3e ca5d a53e 3ba3 cf3e
000000b0: 2694 be3e 249e d63e a90f fc3e 5945 f93e
000000c0: 7506 0f3f 324f 0f3e e4e8 313e d9f6 2a3f
000000d0: ce54 203f 631a 763f ad10 223e fe5a 003e
000000e0: df58 1d3e 84b5 123e d087 ce3e 5c64 9f3d
000000f0: d077 a63f 5a10 e43e 349d 113e aa8c fc3d
00000100: aade ab3d c5f9 923e 9b05 363e 3f73 8b3f
00000110: e824 4b3f ea7e ce3e f641 df3e a50c cd3e
00000120: 2446 6f3e 3a4f 153e 2fb2 fd3e 4885 a83e
00000130: c795 533e ccfb 3e3e f13b d93e a1f5 103f
00000140: a6ec 7f3e b2ff 533e 1b95 1f3f 8bd8 543e
00000150: 3f13 613e f6a9 e43e a982 f43e 0fe2 fd3d
00000160: 55c0 3b3e d173 6d3e 4f25 213e 40ee b73e
00000170: 6c5d 723e ceed 193f 787d 733e cb1d 8e3e
00000180: 1ce1 133f b936 423e 4527 e43e f103 c83e
00000190: 24e2 203e 68c8 9b3e c2c8 563e b631 ff3e
000001a0: eb3d bf3e 1fe4 d83e 376f 4c3e b3f1 123e
000001b0: 7105 463f 26ce 193e 98a8 933e 8a74 6f3e
000001c0: 89b9 8e3e 7823 453e 4607 393e c4f1 193e
000001d0: 4a99 cf3e a83b 1f3e 980f 0c3f b02d 433f
000001e0: eda4 533e 0f42 353e 4262 0c3f d1b0 5f3e
000001f0: d953 273e 39cb db3e c173 fc3d 338a 283e
00000200: 5755 ef3d ec50 173e e89a 883e 5ac1 5c3e
00000210: a654 353e 850f 653e 4448 e13e a219 f23e
00000220: 1d12 e13d a1a7 333f 9611 1b3f b268 5b3e
00000230: 22b0 ea3e 472a d83e c8ab c53e ce29 2f3e
00000240: 41be 213e 7c24 0d3f 34d4 d93e 0433 1e3e
00000250: 41bb 713e f473 c13e ccd9 443f 1936 7b3e
00000260: 821a 203e 2676 f03e 2c58 b23e 8009 c93e
00000270: 0ea8 e33e 6390 293f 9679 eb3d fe83 493e
00000280: b12f a43e 9703 133e 643b 253f 79a5 093e
00000290: d829 e33e cea7 ce3e 6dd0 003f c985 e33e
000002a0: 2727 953e eca7 193e 4059 4a3e 4c79 423f
000002b0: 1c58 083f 11af ca3e 04ad 213e d71f 103f
000002c0: 3205 523e 381b f53d 9f4d 003e 077f d83e
000002d0: 0ca9 333e fb7e 423f ce1d 833e 3481 1b3e
000002e0: 1d78 c33d 5640 7a3e 5bec 163e ab0f 323f
000002f0: d3e9 1e3e 15a9 193e 8264 d23d 6ce0 cf3e
0.14487715 0.20590813 0.48447686 0.2617132 0.44506446 0.2545602 0.3213836 0.21875612
0.23336656 0.45086733 0.23165539 0.6254959 0.9957754 0.48014575 0.50722605 0.17969978
0.26268053 0.28083166 0.15227342 0.1349524 0.15823856 0.8256206 0.33094585 0.3185145
0.5091722 0.13608074 0.42917988 0.13446698 0.11437737 0.11651757 0.106349714 0.8018433
0.41572663 0.15599884 0.24284312 0.1534042 0.5128642 0.15586361 0.09341027 0.15254025
0.15229876 0.22906063 0.32298118 0.40554222 0.37222403 0.41917527 0.49230698 0.4868572
0.5586923 0.13995054 0.17373997 0.6678291 0.626294 0.9613401 0.15826674 0.12534711
0.15365933 0.14327055 0.40337992 0.07782814 1.3005314 0.44543725 0.14220124 0.12331517
0.08392079 0.28706184 0.17775576 1.0894545 0.7935319 0.40331203 0.43605012 0.4004871
0.233666 0.14581004 0.49550006 0.32914186 0.20662604 0.1865074 0.42428544 0.566248
0.24992618 0.20703009 0.6233689 0.2078573 0.21979998 0.4466092 0.47755936 0.12396633
0.18335088 0.23188712 0.15736888 0.35923958 0.2366845 0.60128486 0.23778331 0.27757105
0.57765365 0.18966188 0.4456121 0.39065507 0.15711266 0.30426335 0.2097502 0.49842614
0.37351927 0.42361543 0.199643 0.14350013 0.7735205 0.15020046 0.28839564 0.233843
0.27875927 0.19251812 0.18069181 0.15033633 0.40546638 0.15550101 0.54711294 0.7624159
0.20668383 0.1770098 0.5483743 0.21844794 0.16340579 0.42928484 0.12326766 0.16458969
0.11686199 0.14776963 0.26680684 0.21558133 0.17708072 0.22369201 0.44000447 0.4728518
0.10989783 0.70177656 0.6057371 0.21426657 0.45837504 0.42219755 0.3860762 0.17105791
0.15795232 0.55133796 0.4254471 0.15449148 0.23606588 0.37783778 0.7689483 0.24532355
0.15635112 0.4696514 0.34832895 0.3926506 0.44464153 0.6623594 0.114978 0.19679257
0.32067636 0.14356838 0.6454375 0.13442029 0.44367862 0.403624 0.5031803 0.44438007
0.29131433 0.15005463 0.19760609 0.75966334 0.53259444 0.3958669 0.15788656 0.56298584
0.20509794 0.11968082 0.1252961 0.42284414 0.17544955 0.75975007 0.25608677 0.15186006
0.09544394 0.24438605 0.147386 0.6955516 0.15518884 0.15005906 0.102730766 0.40600908

net.4.weight f4 [192, 192]
00000000: 1c8b c0bd 848d 33bd 2837 2dbd 8da1 873d
00000010: 7a4c d5bd 18f0 e13d f973 b0bc 4381 cb3d
00000020: 5ae0 b2bc 0ec8 d8bd 360a b0bd 0229 f0bc
00000030: 3f11 e7bc 1d88 9bbd ccb1 6f3c eba5 583d
00000040: 1e27 6ebd 9d5f 37bd 89a9 33be 9cfc 47bd
00000050: 9816 0bbc 7f1d a33c 3f9f d23c ead2 033e
00000060: e973 8a3c e0bc 11bd ea04 b53d 6d82 703d
00000070: 3ca4 9ebc a23c 0abe 0f74 19bc b0c5 1cbc
00000080: 7c2f 2a3d 93b9 77bd fcdc 2b3d ffe5 323d
00000090: bf8e 883d 73e8 f93b 738e 35bd b020 273c
000000a0: cb7f 64bd 6da2 cbbd 9559 1abe 2783 8ebc
000000b0: 988b 5bbd f758 37bd d02e 9ebc e0e1 a1bc
000000c0: fe3b 6d3d 8c2d 893d fe51 5fbd 1da6 e13c
000000d0: e8b4 aabd 44e7 e6bc b4bc 33bc 5290 d2bc
000000e0: ecb3 d5bc 29af 383d 051c 5fbd e76d 9ebb
000000f0: 5956 3b3d bcf3 3a3d 69e9 f0bd 8fbc 9fbb
00000100: 592f 9dbd 02c6 2fbd cb76 d0bd 4d71 08be
00000110: ee03 963c 8c14 8bbd fb76 3ebd 6e9f 97bd
00000120: a2a7 cdbc ee5f cbbd f25f 47bd 10b4 4ebd
00000130: 3e3f 503d de89 91bc 3b27 2f3d 3f8d 4fbe
00000140: e0a7 da3c 5f78 3fbd 9456 5cbd f3a0 9e3d
00000150: f161 29bd e53b a7bc 85c6 04be 01c2 de3a
00000160: 6ecf f6bc ba4c 093e e62b 8a3c 07c3 6dbc
00000170: 0a60 423d 4f45 0e3d 8ed7 03ba 3513 99bd
00000180: 6dab afbc f217 a5ba 74a0 5abc 2d39 0ebc
00000190: 0966 313d ec45 f13c c544 a73d c491 db3c
000001a0: 64e3 d7bc 1827 91bd 5ad8 1e3d c646 a2bd
000001b0: d592 8e3d 99cd b7bd b8ab c8bd 809e d43c
000001c0: b4bc bcbd 20d5 86bd 51b8 96bc b5ba 99bd
000001d0: 6e5b d9bc 9d4e 8abd 018a 023d 46e6 5ebe
000001e0: ed25 be3c e204 c43c e6ec b6bd 8241 683d
000001f0: 8939 1dbd 647e b3bd 5ee0 3cbd 1987 853d
00000200: 81c6 733c 6eef 24bd 5396 00bc 7794 6ebd
00000210: 73fa 2e3c 3163 7c3b 3898 78bd a0c6 c3bc
00000220: d625 e2bd 5a3c 2a3d 31a1 93bd acdd 523c
00000230: a7df e1bc 7af0 debd b4bf 5a3d 782d ac3c
00000240: 0fa5 8cbb 44b7 2fbd 0977 efbd 819c 1d3d
00000250: 6fef 113a 135b b9bd 0efe 823d e1ed a639
00000260: d24f 503d 5b0c 05be d230 05be 238d b03b
00000270: 7cc8 b33d 9def a8bc 1b47 a6bd db88 9cbc
00000280: b437 24bd 9b9c 6ebd 5e67 923c d9dd e73c
00000290: ab88 0c3e 5b78 3abd 365c 43bc 4f4c 993d
000002a0: c0c5 013d ae25 ee3b f313 1d3b bdd3 4fbe
000002b0: 91a6 50bc 34df 4f3c e5be d6bd bb40 9b3c
000002c0: f2dd 15bd e2c1 803d 43f7 0abd 0ec8 0bbd
000002d0: 9cea 6dbc 5f07 383b 250a 253d 563b 18bd
000002e0: fda6 17bd 7e45 f5bd fb91 78bd 9274 733d
000002f0: 64ed d03b 64b2 c4bd 96d0 5cbd 57f2 713b
00000300: a5b7 04bd 5147 5a3d 5c2d b13c 0455 303d
00000310: 9b38 c8bc e767 39bd 1f35 b1bd 42ca 39bd
00000320: 8c9f 06bd 9489 613d a08a 2e3d 4252 463d
00000330: 2083 61be 09f7 8cbd 0907 99bc 2574 3ebd
00000340: 9f67 2b3d 9372 98bc 8ebd 923c 17f3 1abc
00000350: fba5 063c 888c 88bc aab7 a0bc a306 3c3c
00000360: 0910 64bc dc18 c4bd 1e75 bfbd 5078 e0bc
00000370: 3487 d7bd 061e 4ebd 6120 f5bd f82f 20be
00000380: 5847 5f3d 77f9 82bd c4d9 ea3b 9211 c8bc
00000390: fee8 45bd 33f1 70bd c315 7fbd 02a7 c5bc
000003a0: 64e5 e3bb 6bdb 0d3d e30a 953d 82d4 89bd
000003b0: 5c26 03be 285e 103e 77d8 dcbb a266 643c
000003c0: f9f5 a83c a879 843c 3dc9 353c 9ba2 6dbd
000003d0: c8ca 8f3b 6490 83bc f207 5dbd 01ab e8bc
000003e0: 1ac9 aebd ee5c 523c 13d7 5f3c 3c78 8c3d
000003f0: ee03 debd c97f fcbd dcbc c9bc 3663 e4bd
-0.09401533 -0.04383613 -0.04228893 0.0662261 -0.10414977 0.110321224 -0.021539675 0.09936764
-0.021835495 -0.105850324 -0.085956976 -0.029316429 -0.028206466 -0.07594321 0.014629792 0.052892607
-0.058142774 -0.04476892 -0.17545141 -0.04882489 -0.0084892735 0.019911526 0.0257107 0.12873426
0.016900973 -0.035580516 0.08838828 0.058718134 -0.019365422 -0.13499692 -0.009366049 -0.009568617
0.04154919 -0.06047971 0.041958794 0.043676373 0.06667852 0.007626587 -0.044325303 0.010200664
-0.055785935 -0.0994309 -0.15073235 -0.017396523 -0.053599924 -0.044762578 -0.019309431 -0.019761026
0.05791854 0.066981405 -0.054521553 0.02754503 -0.083352864 -0.028186448 -0.010970283 -0.025703583
-0.02608677 0.04508892 -0.05447008 -0.0048348787 0.045736644 0.0456426 -0.117632695 -0.004874773
-0.076750465 -0.042913444 -0.10178908 -0.13324471 0.01831242 -0.067910284 -0.046500187 -0.07403456
-0.025104348 -0.099304065 -0.048675485 -0.05046469 0.050841562 -0.017765936 0.042762022 -0.20268725
0.026691377 -0.046745654 -0.053793505 0.077455424 -0.04135317 -0.020414302 -0.12966354 0.0016995074
-0.030128207 0.13408175 0.016866636 -0.01451183 0.04745487 0.034734067 -0.00050293736 -0.074743666
-0.021444047 -0.0012595637 -0.013343919 -0.008680624 0.0433102 0.029452287 0.081674136 0.026802905
-0.026353545 -0.07087535 0.038780548 -0.07923655 0.069616 -0.089747615 -0.09798378 0.025954485
-0.0921568 -0.06583619 -0.018398436 -0.07506315 -0.026532855 -0.067532755 0.031869892 -0.2176753
0.023211444 0.02392811 -0.089319035 0.056703098 -0.038384948 -0.087643415 -0.04611241 0.065199085
0.01487887 -0.0402674 -0.00784834 -0.058247056 0.010679829 0.003851127 -0.060692042 -0.023898423
-0.11042373 0.041561462 -0.07208479 0.0128702335 -0.027572466 -0.10885711 0.05340548 0.021017775
-0.0042921375 -0.042899385 -0.11692626 0.038479332 0.00055669894 -0.09050574 0.06396113 0.0003183922
0.050857373 -0.12992994 -0.13006905 0.0053879186 0.08778474 -0.020622069 -0.08119031 -0.019108227
-0.040092185 -0.05825482 0.017871555 0.028304027 0.1372401 -0.045524936 -0.01192384 0.07485258
0.03168273 0.0072676754 0.002396819 -0.20295615 -0.012735025 0.012687493 -0.10485629 0.018951764
-0.036588617 0.0628698 -0.033927213 -0.034126334 -0.014521267 0.0028080565 0.040292878 -0.037165962
-0.037024487 -0.11976145 -0.060686093 0.059437342 0.0063759554 -0.09604338 -0.05390986 0.0036918127
-0.0324017 0.05329067 0.021628074 0.043049827 -0.024441054 -0.045265105 -0.0865271 -0.045358904
-0.032867 0.055062845 0.04261267 0.04841829 -0.22022676 -0.06883056 -0.018680112 -0.046497483
0.041846868 -0.01860932 0.017912652 -0.009457371 0.008218284 -0.016668573 -0.019618828 0.011476192
-0.013919839 -0.09575054 -0.0934851 -0.02740112 -0.10523835 -0.0503216 -0.119690664 -0.15643299
0.054511398 -0.06395238 0.007167073 -0.02442244 -0.0483179 -0.058823776 -0.062276613 -0.024127487
-0.0069548357 0.03463308 0.07277467 -0.06729986 -0.12807602 0.14098418 -0.006739672 0.013940485
0.020625101 0.016171291 0.011095342 -0.0580164 0.004388187 -0.016060062 -0.053962655 -0.028401854
-0.08534451 0.012839539 0.0136621175 0.068588704 -0.10840593 -0.123290606 -0.024626188 -0.111517355

net.4.bias f4 [192]
00000000: b96f 2dbd 78a8 99bb 3213 e1b9 3afe 7dbc
00000010: 05a5 6abc 1f32 19bd cae3 c13c 9581 83bd
00000020: 9ae4 ed3c 55d3 503d fb02 a23d bfd0 2bbb
00000030: f983 5a3c 247b 8abc b7a6 66bd 9563 a8bc
00000040: 85fa 8abc 855a 293b 6508 74bd 1c69 d43a
00000050: 9e0e 84bb e033 463d e4b2 b73c bdbb b73b
00000060: 5a11 c4ba f2b1 803d 1391 333d 629e 97bd
00000070: 1b27 983d c5b2 dcba a9e9 573d 6d56 0b3d
00000080: c717 4bbd 6671 803d 29c1 24bd d0f3 263d
00000090: d4d3 01bd 9a0d 0a3c 27dc ba3c bcbd 323d
000000a0: 575d ef3c 0c90 d6bc 0e61 0cbd ee37 663d
000000b0: 227f 403d 93a6 5ebd 5807 acbc 1e3c 95bd
000000c0: 6d4e 933c d2a4 a9bd d7ca 8abd 24bc 5cbd
000000d0: 1708 393d 076f 66bd 6646 323d 5d76 a8bd
000000e0: 48b9 003b ec6b db3b 022b a1bd cd74 a9ba
000000f0: 4c20 693d 6496 75bd 1205 0fbd b8d2 0a3c
00000100: d23a 60bd 64a4 0a3d e13e 64bd 9998 423d
00000110: 1a8a 503a 83aa 40bd ee7e fdbc 0522 e53b
00000120: 64c1 fd3c 3262 703d 0134 69bd b527 2fbb
00000130: e7d7 0bbd 9810 bfbc 68d0 8dbc 04e6 40bd
00000140: ac57 003d a71e 343d ffea 063d 8666 86bb
00000150: 6c3c 4abd 2ab4 0bbb 05ba 4a3d e267 5ebd
00000160: e28d 7d3c 8689 683d 7bef 5e3d e51e 0ebd
00000170: 9e4f 2dbb 0140 4bbc df03 1e3d a75d 8abd
00000180: 1c59 96bd 4f27 283c 62dc 3d3d 066b 7d3d
00000190: b80f 50bd 3ee1 09bd 48eb 903d 8cc8 643d
000001a0: 14c0 553c ad23 c63a 48b0 8ebd e942 0c3c
000001b0: 00bd 85bd f80c b4bc 34af 82bd d055 873d
000001c0: 572b 413d faad 0b3d 98c5 5f3d 88a4 203d
000001d0: e26a d33c faa3 c03c ec0d c93c 5a9f 8f3d
000001e0: 0c83 493b d6f8 3cbd 72bc e23b 98ee a23d
000001f0: b9fa 883d a1f3 3fbd 10cc 4abd 68ea cd3c
00000200: b88a 6ebd bcdd 013d dac8 24bc 2d2b 9abc
00000210: 11ec 363d 1dc2 6fbd 27c0 0cbd 7a8d ae3d
00000220: 8a86 d73c f638 38bd c3f4 9bbc 7ad8 1abd
00000230: 8247 14bd a58b a7bd e14e 6ebb d531 043d
00000240: 60f3 85bd 8ef5 9b3c aa4b 283c 35f4 93bc
00000250: c833 a9bb 2331 5bbd 6199 80bd a69d ce3c
00000260: f2c7 f8bc bbc8 c73c 5366 8eba d19c 30bd
00000270: c706 c3bd 7412 94bd fa82 92bd 312a 2cbc
00000280: e328 803c bd04 41bd daae 57bd f429 703d
00000290: 1e33 513d c696 973c 4e0a 013c 279d 493d
000002a0: 07a6 10bd ae47 76bd 1381 6d3d 5b39 4d3c
000002b0: 3761 573d dd3a e73c 919f 94bd 15f3 49bd
000002c0: 5c64 883c 0eba 7bbb b10d cebc a47a 263d
000002d0: d1bd 4dbd 051a 0ebd 0024 e0bb 5055 923a
000002e0: 935e 9b3c b1f3 8dbc b5cc 1dbd 9ccf 49bb
000002f0: bd39 4dbd aab6 35bd cca6 94bc 9636 11bc
-0.042342875 -0.0046892725 -0.00042929646 -0.015502507 -0.01432157 -0.037401315 0.023668189 -0.064212
0.02903967 0.050982792 0.07910725 -0.0026216952 0.013337129 -0.016904421 -0.056311335 -0.020555297
-0.01696516 0.0025841307 -0.05957832 0.0016205641 -0.004030063 0.048389316 0.022424169 0.005607097
-0.0014958784 0.062839404 0.043839525 -0.07403256 0.07429334 -0.0016837945 0.05271307 0.03401797
-0.049583223 0.06271629 -0.040223274 0.04075986 -0.031696156 0.008426094 0.022810055 0.043637976
0.029219313 -0.026191734 -0.034272246 0.056205682 0.046996243 -0.054358076 -0.020999596 -0.07286857
0.017981732 -0.0828339 -0.0677697 -0.053890362 0.04517373 -0.056258228 0.04352417 -0.08225701
0.0019641686 0.006696215 -0.07869531 -0.0012928486 0.056915566 -0.059957877 -0.034916945 0.008473091
-0.054743595 0.03384818 -0.05572403 0.04750881 0.0007955149 -0.047037613 -0.030944314 0.006992581
0.030976005 0.058687396 -0.05693436 -0.0026726548 -0.034141447 -0.023323342 -0.01731129 -0.04709436
0.03133361 0.043974545 0.032938953 -0.004101577 -0.04937403 -0.0021317103 0.04949381 -0.05429829
0.015475722 0.056771778 0.054427605 -0.034697432 -0.002644516 -0.012405396 0.03857791 -0.06756144
-0.07341215 0.010263278 0.04635275 0.061869644 -0.05079624 -0.033662073 0.07076126 0.05585532
0.013046283 0.0015116833 -0.06967217 0.0085608745 -0.065301895 -0.02197884 -0.063810736 0.06608164
0.047160473 0.034101464 0.0546318 0.03921941 0.025807802 0.02351569 0.024542771 0.07012816
0.0030748276 -0.046135746 0.006919437 0.079556644 0.066884466 -0.046863202 -0.049511015 0.025136188
-0.05823776 0.031705603 -0.010057652 -0.018819416 0.044658724 -0.05853473 -0.03436294 0.08523078
0.02630927 -0.044976197 -0.01903761 -0.037804104 -0.036201008 -0.08180932 -0.0036362933 0.032274086
-0.06540561 0.019037988 0.010271946 -0.018060783 -0.0051636435 -0.053513657 -0.06279255 0.025221657
-0.030368779 0.024387708 -0.0010864235 -0.0431183 -0.09522777 -0.07230082 -0.07153888 -0.010508106
0.015644496 -0.04712366 -0.052656986 0.05863376 0.05107414 0.018504512 0.007875992 0.049222138
-0.035314586 -0.060126953 0.057984423 0.012525882 0.052582946 0.02822631 -0.072569974 -0.049304087
0.016649418 -0.0038410458 -0.025153013 0.040644303 -0.05022985 -0.034692783 -0.006840229 0.0011164341
0.018965995 -0.017328115 -0.038525302 -0.003079391 -0.05010389 -0.044363655 -0.018145941 -0.008863112

net.5.weight f4 [192]
00000000: fca1 713f 2425 6f3f da88 7b3f 53f9 843f
00000010: 880c 813f 3ae3 793f ff9a 763f 8a2d 843f
00000020: fef3 843f ae5e 853f f4d6 803f 78f7 6f3f
00000030: df0f 833f 897c 833f faa6 6f3f 148d 893f
00000040: a34f 7b3f 521e 823f f657 6b3f f025 763f
00000050: 843c 6b3f 9072 743f 041c 803f 0a32 583f
00000060: 33ba 763f 1f12 763f 9fdc 753f f4b6 763f
00000070: 4bda 823f 9332 7e3f 2fd3 863f 42c5 823f
00000080: 3474 713f a9c6 633f dcbd 843f 76a9 863f
00000090: 18cc 783f e1bd 893f 6f44 6f3f 3e56 6d3f
000000a0: 0d37 6e3f 5524 7a3f 551d 7c3f 85a0 7c3f
000000b0: 6e18 793f b088 783f ffec 7c3f 2a14 793f
000000c0: 879d 803f ab94 7c3f 988c 7a3f ea86 6d3f
000000d0: c906 803f 5229 873f 177d 733f 7363 843f
000000e0: d354 5e3f 81ea 7b3f a82d 883f 348e 6f3f
000000f0: a091 773f 1a4b 843f fed7 763f 28fb 5a3f
00000100: 48ed 833f 2a4f 753f d51b 703f 9f15 733f
00000110: 9307 763f 503b 863f c224 813f 36f6 7d3f
00000120: c07b 7c3f e0ea 7c3f 97f4 6f3f 9853 923f
00000130: 802d 7b3f 87a6 6f3f 04f1 7e3f 295c 793f
00000140: b91c 763f 42d2 863f dbdd 823f 034d 7e3f
00000150: 5a27 713f 679c 763f 4491 813f 893c 883f
00000160: 3e35 663f aa84 793f 40e0 783f 8d2e 733f
00000170: 12d3 6a3f ee4d 7e3f 1b6e 7f3f a278 733f
00000180: df12 803f f404 813f d9f8 763f f7aa 753f
00000190: 6c98 813f 7b8a 6b3f 3138 673f 237d 6e3f
000001a0: 71d2 6f3f 9bab 703f b859 803f 92db 823f
000001b0: a620 693f a93a 6b3f 04c7 763f 6bda 813f
000001c0: 339e 873f 328a 6c3f 207c 7c3f 4f77 873f
000001d0: 00ed 823f 3d95 893f 446a 753f 5018 7b3f
000001e0: 6916 623f 9ab3 613f d779 6a3f 367f 853f
000001f0: fe89 7c3f 18ed 6a3f 95cd 793f 3f96 803f
00000200: ba49 7e3f c48e 7e3f 976d 883f ef79 6a3f
00000210: 57a4 643f 8457 823f a808 793f 7747 823f
00000220: 4e34 6d3f 5f42 613f 1828 813f 8742 803f
00000230: c1e9 803f f2fa 693f b80f 7a3f e314 793f
00000240: b0c1 7d3f de58 7c3f 6b4d 653f dc05 6c3f
00000250: cfe1 773f b683 853f 2bbb 753f 6c1d 803f
00000260: db69 8a3f 6b98 873f 3e88 753f e43f 763f
00000270: 7577 893f ba5b 6d3f b1d2 813f a73e 813f
00000280: c4e2 713f 6bb6 633f 0574 663f e2a7 823f
00000290: 1fc8 813f 63cf 793f 6eba 773f c661 813f
000002a0: 5e2e 863f 1b50 783f f77c 773f cf1f 7f3f
000002b0: e783 803f 76ae 773f e3e1 7f3f 767a 793f
000002c0: a7bf 693f 769c 7e3f 4b8e 7b3f e6c3 7a3f
000002d0: 04f3 6b3f fc11 7a3f 7c2b 773f c986 823f
000002e0: 10b5 813f 9dd6 823f 55aa 743f d6b7 853f
000002f0: 8fab 773f 8a92 823f e1b8 763f 198c 723f
0.94387794 0.9341605 0.98255694 1.0388588 1.0081949 0.97612345 0.96330255 1.0326397
1.038696 1.0419519 1.0065598 0.9373698 1.0239218 1.027238 0.9361416 1.0746179
0.9816839 1.0165503 0.9193109 0.9615164 0.91889215 0.9548731 1.000855 0.84451354
0.9637787 0.961214 0.96039766 0.96372914 1.0222868 0.9929592 1.0533198 1.0216448
0.94317937 0.88975006 1.037044 1.0520465 0.9718642 1.0761071 0.93463796 0.9270972
0.9305275 0.9771169 0.9848226 0.98682433 0.973029 0.9708357 0.9879913 0.9729639
1.0048074 0.9866435 0.9787078 0.9278399 1.0002071 1.0559485 0.95112747 1.034285
0.8684818 0.984047 1.0638933 0.9357636 0.9670658 1.0335419 0.9642333 0.85539484
1.0306787 0.9582392 0.9379247 0.94954866 0.9610531 1.0486851 1.0089343 0.99203813
0.9862633 0.9879589 0.9373259 1.1431761 0.981163 0.93613476 0.9958651 0.9740625
0.9613758 1.0532916 1.0223955 0.9933626 0.9420067 0.963324 1.0122457 1.0643474
0.8992499 0.97468054 0.9721718 0.94992906 0.9172832 0.9933766 0.9977738 0.95105946
1.0005759 1.0079637 0.9647346 0.95963997 1.012464 0.9200818 0.90320116 0.93159693
0.93680483 0.9401185 1.002738 1.0223258 0.9106544 0.91886383 0.96397424 1.0144781
1.0595154 0.9239837 0.986269 1.0583285 1.0228577 1.0748669 0.95865273 0.9808397
0.88315445 0.88164675 0.9159216 1.0429447 0.9864806 0.91768026 0.9757932 1.0045851
0.9933125 0.99436593 1.0658444 0.91592306 0.8931326 1.0182958 0.97278833 1.0178059
0.92657936 0.879919 1.0090361 1.0020303 1.0071336 0.9139854 0.97680235 0.97297496
0.9912367 0.985731 0.89571255 0.9219644 0.9682893 1.043082 0.9598872 1.0008979
1.0813555 1.0593389 0.95911014 0.9619124 1.073958 0.9271809 1.0142423 1.0097245
0.9448664 0.8895022 0.9002078 1.0207484 1.0139197 0.9758207 0.96768844 1.0107963
1.04829 0.9699723 0.96675056 0.9965791 1.0040253 0.9675058 0.9995405 0.97452486
0.91308063 0.9945749 0.98263997 0.9795517 0.9216769 0.9768369 0.96550727 1.0197383
1.0133381 1.0221745 0.95572406 1.0446727 0.9674615 1.020097 0.9637585 0.9474502

net.5.bias f4 [192]
00000000: 1c7a 11be 3030 ccbd 82ce 19bd 01b4 403b
00000010: 2972 213d 493e c2ba d532 eebc a246 83be
00000020: 371a 2fbe 5e37 373d 0f3e a2bd e320 61bd
00000030: 1701 e9bd 644c e4bd 0097 0fbe 6a6e f2bb
00000040: 6d68 c0bd 3636 a6bc 35e0 87bd 00ab 78bd
00000050: 47b0 8ebd 5bfb 2bbd 4a86 4ebe 35e2 74be
00000060: 0cb4 60bd a1ca 5cbd 88b7 f7bd b6f6 eb3b
00000070: 0c25 bbbd f797 6abd 4371 66be 6f94 d53c
00000080: 2ea3 04bc 1f03 45be e210 70be f92b 84be
00000090: f731 3cbd 9ab2 acbe 7657 93bd b40d 5dbe
000000a0: 8d80 2cbe 5dcb d7bd 7011 c8bd d899 d7bd
000000b0: a9a9 11be 7935 03bd c281 bfbb 48e1 a1bd
000000c0: ced0 283d 4436 91bd 0296 c0bd a11b 89be
000000d0: 26fe b9bd 59ce dfbd 3d72 b2bd 1c41 77be
000000e0: 71f2 86be e3d5 d8bd 0cb6 00be 1cf6 1bbe
000000f0: 2fb0 99bc 2e6c 543c 6cab 71bc b93b 19be
00000100: db72 edbb 3528 5dbd 7b0f 11be 194b 1cbe
00000110: c2f3 babd 4710 a6bc bb96 3cbe 884d ebbd
00000120: 7931 c6bd cf61 afbd b5af efbd e8ef 91be
00000130: 2e40 97bd b693 20be 82d9 71bc 6732 afbd
00000140: bd6c c5bd d9fe de3c 5783 f0bd c0f7 133d
00000150: c2f6 07be 8df3 32be e34e ccbd f0a6 3e3c
00000160: ac3d 29be 9093 70bd 5e8d 7cbd 1a79 93bd
00000170: a6f6 68be 8225 5cbe e9fb 86bd 3e46 bebd
00000180: a53f 28be 4827 2e3d 6f18 23be af2b e4bd
00000190: 2653 f3bd 618a 13be 7be1 e2bd 15b9 41be
000001a0: 5054 29be b925 20be 9edc 22bd 8f32 d2bc
000001b0: 45f3 59bd c79a 23bd ba60 c0bc 9054 ebbd
000001c0: d640 90be a9dc 0bbe b918 f9bd 2294 cfbd
000001d0: 1b2a 67be 6eae 963b b50b f1bd 9fae c5bd
000001e0: bdb4 10be add6 45be db78 79be 2c66 c3bd
000001f0: 126a 27be 1fa5 a1bd d622 02be 645c c7bd
00000200: 06dd a1bc 46ee d0bc 206a 78be e6cb 14be
00000210: 5dd1 b2be d008 a5bc de6c d0bc 7a51 40be
00000220: b69e 90be c629 4dbe b031 7fbd 6cab a4bd
00000230: 173a 5dbe b7b8 21be c82c 29be b099 48be
00000240: 4260 87bd 52a8 e0bd 2955 83be be7b 18be
00000250: 38f2 8ebc 29bd a53c ba5a e6bc e06b c9bd
00000260: 2de3 80be e229 3cbc c8ef b7bd 5c3d 12bd
00000270: ed96 4f3d 9fff 1fbe cef9 82be 249f 6d3d
00000280: 5a5f 82bd 24fd dfbd 66c2 adbd c75f 52bd
00000290: 9bad edbd a023 aabd 0d74 93bd b3c5 b7bc
000002a0: f9f3 9cbd cee0 21be d2a5 06be 6c7d e3bc
000002b0: 120f 36be d7b0 15be 8cad a43d 0802 46bc
000002c0: dc37 b5bd e00a c4bd a241 1cbe 3c35 acbd
000002d0: 764b 9bbd a5cd 3a3d 0c16 68be 4a27 d6bb
000002e0: beb0 82be 4c5e 50be 73bd 8bbe 6fbb b73c
000002f0: 34d9 e7bd 3d5a bfbc e92c b9bd e055 22be
-0.14206737 -0.099701285 -0.037550457 0.0029404166 0.039415512 -0.0014819588 -0.029076973 -0.25639826
-0.17099844 0.044730537 -0.07921993 -0.054963004 -0.11377161 -0.11147383 -0.14022446 -0.0073984163
-0.09394918 -0.020289522 -0.06634561 -0.060709953 -0.06967216 -0.041987758 -0.20168415 -0.23914416
-0.054859206 -0.05390418 -0.12095553 0.007201041 -0.091379255 -0.05727383 -0.22504143 0.026071755
-0.008095546 -0.19239472 -0.2344394 -0.25814798 -0.045946088 -0.33730012 -0.07194416 -0.21587259
-0.16845913 -0.10536835 -0.09768951 -0.1052739 -0.14224876 -0.032033417 -0.0058443258 -0.07904297
0.041214757 -0.070904285 -0.09403612 -0.26778892 -0.09081678 -0.109280296 -0.087131955 -0.24145931
-0.26356843 -0.10587671 -0.12569445 -0.15230602 -0.018760769 0.012965245 -0.014750343 -0.14964189
-0.007246358 -0.053993423 -0.14166062 -0.15263022 -0.09128524 -0.020271434 -0.18416874 -0.11489397
-0.09677405 -0.085635774 -0.11703435 -0.28503346 -0.07385288 -0.15681347 -0.014761331 -0.08554535
-0.09639881 0.02722113 -0.11743801 0.036124945 -0.13277724 -0.1747572 -0.09975984 0.011636481
-0.16527432 -0.058734477 -0.061658256 -0.07200833 -0.22750339 -0.21498683 -0.06591017 -0.092907414
-0.16430528 0.04251793 -0.1592729 -0.111411445 -0.11881094 -0.14408256 -0.11078163 -0.1891826
-0.16536069 -0.1563939 -0.03976118 -0.025658874 -0.053210516 -0.03994253 -0.023483623 -0.114907384
-0.28174466 -0.13658394 -0.121629186 -0.10135676 -0.22574656 0.0045984304 -0.11769811 -0.09652447
-0.14131446 -0.19320174 -0.24362509 -0.09540972 -0.16349056 -0.078928225 -0.12708601 -0.09734419
-0.019758713 -0.025504243 -0.24259233 -0.14530906 -0.34925357 -0.020145804 -0.025442537 -0.18781081
-0.28246087 -0.20035467 -0.062303245 -0.08040509 -0.21604191 -0.1579312 -0.16520989 -0.19589877
-0.066101566 -0.109696046 -0.2565091 -0.14890954 -0.017449483 0.0202318 -0.028119434 -0.09835029
-0.2517332 -0.011484595 -0.089812815 -0.035703048 0.050681043 -0.15624855 -0.2558121 0.058013096
-0.06365843 -0.109369546 -0.08484344 -0.05136087 -0.11605378 -0.08307576 -0.07199869 -0.022433138
-0.076637216 -0.15808412 -0.13149193 -0.027769767 -0.17779186 -0.1461824 0.08040914 -0.012085445
-0.08848545 -0.09572387 -0.15259412 -0.08408591 -0.075827524 0.045606274 -0.2266466 -0.0065354453
-0.2552547 -0.20348471 -0.27292976 0.022428242 -0.11320725 -0.023358459 -0.09041769 -0.15853071
